{
  "nodes": [
    {
      "op": "null", 
      "name": "timeFeaturesPred", 
      "inputs": []
    }, 
    {
      "op": "SliceChannel", 
      "name": "dec_input_seq", 
      "attrs": {
        "axis": "2", 
        "num_outputs": "12", 
        "squeeze_axis": "True"
      }, 
      "inputs": [[0, 0, 0]]
    }, 
    {
      "op": "repeat", 
      "name": "repeat58", 
      "attrs": {
        "axis": "0", 
        "repeats": "100"
      }, 
      "inputs": [[1, 0, 0]]
    }, 
    {
      "op": "null", 
      "name": "itemFeatures", 
      "inputs": []
    }, 
    {
      "op": "SliceChannel", 
      "name": "item_features_categorical_seq", 
      "attrs": {
        "axis": "1", 
        "num_outputs": "2", 
        "squeeze_axis": "True"
      }, 
      "inputs": [[3, 0, 0]]
    }, 
    {
      "op": "null", 
      "name": "embed_0_weight", 
      "inputs": []
    }, 
    {
      "op": "Embedding", 
      "name": "item_embed_0", 
      "attrs": {
        "input_dim": "58", 
        "output_dim": "10"
      }, 
      "inputs": [[4, 0, 0], [5, 0, 0]]
    }, 
    {
      "op": "null", 
      "name": "embed_1_weight", 
      "inputs": []
    }, 
    {
      "op": "Embedding", 
      "name": "item_embed_1", 
      "attrs": {
        "input_dim": "25", 
        "output_dim": "10"
      }, 
      "inputs": [[4, 1, 0], [7, 0, 0]]
    }, 
    {
      "op": "Concat", 
      "name": "item_inputs_embed", 
      "attrs": {
        "dim": "1", 
        "num_args": "2"
      }, 
      "inputs": [[6, 0, 0], [8, 0, 0]]
    }, 
    {
      "op": "null", 
      "name": "trainTarget", 
      "inputs": []
    }, 
    {
      "op": "expand_dims", 
      "name": "expand_dims6", 
      "attrs": {"axis": "2"}, 
      "inputs": [[10, 0, 0]]
    }, 
    {
      "op": "SliceChannel", 
      "name": "trainTarget_seq", 
      "attrs": {
        "axis": "1", 
        "num_outputs": "49", 
        "squeeze_axis": "True"
      }, 
      "inputs": [[11, 0, 0]]
    }, 
    {
      "op": "Concat", 
      "name": "concat54", 
      "attrs": {
        "dim": "1", 
        "num_args": "12"
      }, 
      "inputs": [
        [12, 37, 0], 
        [12, 38, 0], 
        [12, 39, 0], 
        [12, 40, 0], 
        [12, 41, 0], 
        [12, 42, 0], 
        [12, 43, 0], 
        [12, 44, 0], 
        [12, 45, 0], 
        [12, 46, 0], 
        [12, 47, 0], 
        [12, 48, 0]
      ]
    }, 
    {
      "op": "abs", 
      "name": "abs1", 
      "inputs": [[13, 0, 0]]
    }, 
    {
      "op": "null", 
      "name": "observedValuesTrain", 
      "inputs": []
    }, 
    {
      "op": "expand_dims", 
      "name": "expand_dims9", 
      "attrs": {"axis": "2"}, 
      "inputs": [[15, 0, 0]]
    }, 
    {
      "op": "SliceChannel", 
      "name": "observedValuesTrain_seq", 
      "attrs": {
        "axis": "1", 
        "num_outputs": "49", 
        "squeeze_axis": "True"
      }, 
      "inputs": [[16, 0, 0]]
    }, 
    {
      "op": "Concat", 
      "name": "concat55", 
      "attrs": {
        "dim": "1", 
        "num_args": "12"
      }, 
      "inputs": [
        [17, 37, 0], 
        [17, 38, 0], 
        [17, 39, 0], 
        [17, 40, 0], 
        [17, 41, 0], 
        [17, 42, 0], 
        [17, 43, 0], 
        [17, 44, 0], 
        [17, 45, 0], 
        [17, 46, 0], 
        [17, 47, 0], 
        [17, 48, 0]
      ]
    }, 
    {
      "op": "elemwise_mul", 
      "name": "_mul337", 
      "inputs": [[14, 0, 0], [18, 0, 0]]
    }, 
    {
      "op": "sum", 
      "name": "sum3", 
      "attrs": {"axis": "1"}, 
      "inputs": [[19, 0, 0]]
    }, 
    {
      "op": "sum", 
      "name": "sum2", 
      "attrs": {"axis": "1"}, 
      "inputs": [[18, 0, 0]]
    }, 
    {
      "op": "zeros_like", 
      "name": "zeros_like37", 
      "inputs": [[21, 0, 0]]
    }, 
    {
      "op": "broadcast_greater", 
      "name": "broadcast_greater1", 
      "inputs": [[20, 0, 0], [22, 0, 0]]
    }, 
    {
      "op": "ones_like", 
      "name": "ones_like194", 
      "inputs": [[21, 0, 0]]
    }, 
    {
      "op": "broadcast_maximum", 
      "name": "broadcast_maximum1", 
      "inputs": [[21, 0, 0], [24, 0, 0]]
    }, 
    {
      "op": "broadcast_div", 
      "name": "broadcast_div25", 
      "inputs": [[20, 0, 0], [25, 0, 0]]
    }, 
    {
      "op": "ones_like", 
      "name": "ones_like195", 
      "inputs": [[26, 0, 0]]
    }, 
    {
      "op": "_mul_scalar", 
      "name": "_mulscalar73", 
      "attrs": {"scalar": "1484.6802122958004"}, 
      "inputs": [[27, 0, 0]]
    }, 
    {
      "op": "where", 
      "name": "where325", 
      "inputs": [[23, 0, 0], [26, 0, 0], [28, 0, 0]]
    }, 
    {
      "op": "_maximum_scalar", 
      "name": "_maximumscalar1", 
      "attrs": {"scalar": "1e-10"}, 
      "inputs": [[29, 0, 0]]
    }, 
    {
      "op": "Reshape", 
      "name": "reshape1", 
      "attrs": {"shape": "(-1,)"}, 
      "inputs": [[30, 0, 0]]
    }, 
    {
      "op": "expand_dims", 
      "name": "expand_dims11", 
      "attrs": {"axis": "1"}, 
      "inputs": [[31, 0, 0]]
    }, 
    {
      "op": "log", 
      "name": "log25", 
      "inputs": [[32, 0, 0]]
    }, 
    {
      "op": "Concat", 
      "name": "concat56", 
      "attrs": {
        "dim": "1", 
        "num_args": "2"
      }, 
      "inputs": [[9, 0, 0], [33, 0, 0]]
    }, 
    {
      "op": "repeat", 
      "name": "repeat59", 
      "attrs": {
        "axis": "0", 
        "repeats": "100"
      }, 
      "inputs": [[34, 0, 0]]
    }, 
    {
      "op": "null", 
      "name": "isPaddedTrain", 
      "inputs": []
    }, 
    {
      "op": "expand_dims", 
      "name": "expand_dims8", 
      "attrs": {"axis": "2"}, 
      "inputs": [[36, 0, 0]]
    }, 
    {
      "op": "SliceChannel", 
      "name": "isPaddedTrain_seq", 
      "attrs": {
        "axis": "1", 
        "num_outputs": "49", 
        "squeeze_axis": "True"
      }, 
      "inputs": [[37, 0, 0]]
    }, 
    {
      "op": "zeros_like", 
      "name": "zeros_like61", 
      "inputs": [[12, 48, 0]]
    }, 
    {
      "op": "null", 
      "name": "timeFeaturesTrain", 
      "inputs": []
    }, 
    {
      "op": "SliceChannel", 
      "name": "enc_input_seq", 
      "attrs": {
        "axis": "2", 
        "num_outputs": "49", 
        "squeeze_axis": "True"
      }, 
      "inputs": [[40, 0, 0]]
    }, 
    {
      "op": "zeros_like", 
      "name": "zeros_like59", 
      "inputs": [[12, 47, 0]]
    }, 
    {
      "op": "zeros_like", 
      "name": "zeros_like57", 
      "inputs": [[12, 46, 0]]
    }, 
    {
      "op": "zeros_like", 
      "name": "zeros_like55", 
      "inputs": [[12, 45, 0]]
    }, 
    {
      "op": "zeros_like", 
      "name": "zeros_like53", 
      "inputs": [[12, 44, 0]]
    }, 
    {
      "op": "zeros_like", 
      "name": "zeros_like51", 
      "inputs": [[12, 43, 0]]
    }, 
    {
      "op": "zeros_like", 
      "name": "zeros_like49", 
      "inputs": [[12, 42, 0]]
    }, 
    {
      "op": "zeros_like", 
      "name": "zeros_like47", 
      "inputs": [[12, 41, 0]]
    }, 
    {
      "op": "zeros_like", 
      "name": "zeros_like45", 
      "inputs": [[12, 40, 0]]
    }, 
    {
      "op": "zeros_like", 
      "name": "zeros_like43", 
      "inputs": [[12, 39, 0]]
    }, 
    {
      "op": "zeros_like", 
      "name": "zeros_like41", 
      "inputs": [[12, 38, 0]]
    }, 
    {
      "op": "zeros_like", 
      "name": "zeros_like39", 
      "inputs": [[12, 37, 0]]
    }, 
    {
      "op": "Concat", 
      "name": "concat57", 
      "attrs": {
        "dim": "1", 
        "num_args": "16"
      }, 
      "inputs": [
        [12, 36, 0], 
        [12, 35, 0], 
        [12, 34, 0], 
        [12, 33, 0], 
        [12, 32, 0], 
        [12, 31, 0], 
        [12, 30, 0], 
        [12, 26, 0], 
        [12, 25, 0], 
        [12, 24, 0], 
        [12, 14, 0], 
        [12, 13, 0], 
        [12, 12, 0], 
        [12, 2, 0], 
        [12, 1, 0], 
        [12, 0, 0]
      ]
    }, 
    {
      "op": "broadcast_div", 
      "name": "broadcast_div26", 
      "inputs": [[53, 0, 0], [32, 0, 0]]
    }, 
    {
      "op": "Concat", 
      "name": "concat58", 
      "attrs": {
        "dim": "1", 
        "num_args": "3"
      }, 
      "inputs": [[41, 37, 0], [34, 0, 0], [54, 0, 0]]
    }, 
    {
      "op": "null", 
      "name": "lstm_l_0i2h_weight", 
      "inputs": []
    }, 
    {
      "op": "null", 
      "name": "lstm_l_0i2h_bias", 
      "attrs": {"__init__": "[\"lstmbias\", {\"forget_bias\": 1.0}]"}, 
      "inputs": []
    }, 
    {
      "op": "FullyConnected", 
      "name": "lstm_l_0t0_i2h", 
      "attrs": {"num_hidden": "376"}, 
      "inputs": [[55, 0, 0], [56, 0, 0], [57, 0, 0]]
    }, 
    {
      "op": "_zeros", 
      "name": "lstm_l_0begin_state_0", 
      "attrs": {
        "__layout__": "NC", 
        "dtype": "float32", 
        "shape": "(0, 94)"
      }, 
      "inputs": []
    }, 
    {
      "op": "where", 
      "name": "where326", 
      "inputs": [[38, 37, 0], [59, 0, 0], [59, 0, 0]]
    }, 
    {
      "op": "null", 
      "name": "lstm_l_0h2h_weight", 
      "inputs": []
    }, 
    {
      "op": "null", 
      "name": "lstm_l_0h2h_bias", 
      "inputs": []
    }, 
    {
      "op": "FullyConnected", 
      "name": "lstm_l_0t0_h2h", 
      "attrs": {"num_hidden": "376"}, 
      "inputs": [[60, 0, 0], [61, 0, 0], [62, 0, 0]]
    }, 
    {
      "op": "elemwise_add", 
      "name": "_plus144", 
      "inputs": [[58, 0, 0], [63, 0, 0]]
    }, 
    {
      "op": "SliceChannel", 
      "name": "lstm_l_0t0_slice", 
      "attrs": {"num_outputs": "4"}, 
      "inputs": [[64, 0, 0]]
    }, 
    {
      "op": "Activation", 
      "name": "lstm_l_0t0_o", 
      "attrs": {"act_type": "sigmoid"}, 
      "inputs": [[65, 3, 0]]
    }, 
    {
      "op": "Activation", 
      "name": "lstm_l_0t0_f", 
      "attrs": {"act_type": "sigmoid"}, 
      "inputs": [[65, 1, 0]]
    }, 
    {
      "op": "_zeros", 
      "name": "lstm_l_0begin_state_1", 
      "attrs": {
        "__layout__": "NC", 
        "dtype": "float32", 
        "shape": "(0, 94)"
      }, 
      "inputs": []
    }, 
    {
      "op": "where", 
      "name": "where327", 
      "inputs": [[38, 37, 0], [68, 0, 0], [68, 0, 0]]
    }, 
    {
      "op": "elemwise_mul", 
      "name": "_mul338", 
      "inputs": [[67, 0, 0], [69, 0, 0]]
    }, 
    {
      "op": "Activation", 
      "name": "lstm_l_0t0_i", 
      "attrs": {"act_type": "sigmoid"}, 
      "inputs": [[65, 0, 0]]
    }, 
    {
      "op": "Activation", 
      "name": "lstm_l_0t0_c", 
      "attrs": {"act_type": "tanh"}, 
      "inputs": [[65, 2, 0]]
    }, 
    {
      "op": "elemwise_mul", 
      "name": "_mul339", 
      "inputs": [[71, 0, 0], [72, 0, 0]]
    }, 
    {
      "op": "elemwise_add", 
      "name": "lstm_l_0t0_state", 
      "inputs": [[70, 0, 0], [73, 0, 0]]
    }, 
    {
      "op": "Activation", 
      "name": "activation120", 
      "attrs": {"act_type": "tanh"}, 
      "inputs": [[74, 0, 0]]
    }, 
    {
      "op": "elemwise_mul", 
      "name": "lstm_l_0t0_out", 
      "inputs": [[66, 0, 0], [75, 0, 0]]
    }, 
    {
      "op": "null", 
      "name": "lstm_l_1i2h_weight", 
      "inputs": []
    }, 
    {
      "op": "null", 
      "name": "lstm_l_1i2h_bias", 
      "attrs": {"__init__": "[\"lstmbias\", {\"forget_bias\": 1.0}]"}, 
      "inputs": []
    }, 
    {
      "op": "FullyConnected", 
      "name": "lstm_l_1t0_i2h", 
      "attrs": {"num_hidden": "376"}, 
      "inputs": [[76, 0, 0], [77, 0, 0], [78, 0, 0]]
    }, 
    {
      "op": "_zeros", 
      "name": "lstm_l_1begin_state_0", 
      "attrs": {
        "__layout__": "NC", 
        "dtype": "float32", 
        "shape": "(0, 94)"
      }, 
      "inputs": []
    }, 
    {
      "op": "where", 
      "name": "where328", 
      "inputs": [[38, 37, 0], [80, 0, 0], [80, 0, 0]]
    }, 
    {
      "op": "null", 
      "name": "lstm_l_1h2h_weight", 
      "inputs": []
    }, 
    {
      "op": "null", 
      "name": "lstm_l_1h2h_bias", 
      "inputs": []
    }, 
    {
      "op": "FullyConnected", 
      "name": "lstm_l_1t0_h2h", 
      "attrs": {"num_hidden": "376"}, 
      "inputs": [[81, 0, 0], [82, 0, 0], [83, 0, 0]]
    }, 
    {
      "op": "elemwise_add", 
      "name": "_plus145", 
      "inputs": [[79, 0, 0], [84, 0, 0]]
    }, 
    {
      "op": "SliceChannel", 
      "name": "lstm_l_1t0_slice", 
      "attrs": {"num_outputs": "4"}, 
      "inputs": [[85, 0, 0]]
    }, 
    {
      "op": "Activation", 
      "name": "lstm_l_1t0_o", 
      "attrs": {"act_type": "sigmoid"}, 
      "inputs": [[86, 3, 0]]
    }, 
    {
      "op": "Activation", 
      "name": "lstm_l_1t0_f", 
      "attrs": {"act_type": "sigmoid"}, 
      "inputs": [[86, 1, 0]]
    }, 
    {
      "op": "_zeros", 
      "name": "lstm_l_1begin_state_1", 
      "attrs": {
        "__layout__": "NC", 
        "dtype": "float32", 
        "shape": "(0, 94)"
      }, 
      "inputs": []
    }, 
    {
      "op": "where", 
      "name": "where329", 
      "inputs": [[38, 37, 0], [89, 0, 0], [89, 0, 0]]
    }, 
    {
      "op": "elemwise_mul", 
      "name": "_mul340", 
      "inputs": [[88, 0, 0], [90, 0, 0]]
    }, 
    {
      "op": "Activation", 
      "name": "lstm_l_1t0_i", 
      "attrs": {"act_type": "sigmoid"}, 
      "inputs": [[86, 0, 0]]
    }, 
    {
      "op": "Activation", 
      "name": "lstm_l_1t0_c", 
      "attrs": {"act_type": "tanh"}, 
      "inputs": [[86, 2, 0]]
    }, 
    {
      "op": "elemwise_mul", 
      "name": "_mul341", 
      "inputs": [[92, 0, 0], [93, 0, 0]]
    }, 
    {
      "op": "elemwise_add", 
      "name": "lstm_l_1t0_state", 
      "inputs": [[91, 0, 0], [94, 0, 0]]
    }, 
    {
      "op": "Activation", 
      "name": "activation121", 
      "attrs": {"act_type": "tanh"}, 
      "inputs": [[95, 0, 0]]
    }, 
    {
      "op": "elemwise_mul", 
      "name": "lstm_l_1t0_out", 
      "inputs": [[87, 0, 0], [96, 0, 0]]
    }, 
    {
      "op": "elemwise_add", 
      "name": "lstm_l_1t0_out_plus_residual", 
      "inputs": [[97, 0, 0], [76, 0, 0]]
    }, 
    {
      "op": "null", 
      "name": "lstm_l_2i2h_weight", 
      "inputs": []
    }, 
    {
      "op": "null", 
      "name": "lstm_l_2i2h_bias", 
      "attrs": {"__init__": "[\"lstmbias\", {\"forget_bias\": 1.0}]"}, 
      "inputs": []
    }, 
    {
      "op": "FullyConnected", 
      "name": "lstm_l_2t0_i2h", 
      "attrs": {"num_hidden": "376"}, 
      "inputs": [[98, 0, 0], [99, 0, 0], [100, 0, 0]]
    }, 
    {
      "op": "_zeros", 
      "name": "lstm_l_2begin_state_0", 
      "attrs": {
        "__layout__": "NC", 
        "dtype": "float32", 
        "shape": "(0, 94)"
      }, 
      "inputs": []
    }, 
    {
      "op": "where", 
      "name": "where330", 
      "inputs": [[38, 37, 0], [102, 0, 0], [102, 0, 0]]
    }, 
    {
      "op": "null", 
      "name": "lstm_l_2h2h_weight", 
      "inputs": []
    }, 
    {
      "op": "null", 
      "name": "lstm_l_2h2h_bias", 
      "inputs": []
    }, 
    {
      "op": "FullyConnected", 
      "name": "lstm_l_2t0_h2h", 
      "attrs": {"num_hidden": "376"}, 
      "inputs": [[103, 0, 0], [104, 0, 0], [105, 0, 0]]
    }, 
    {
      "op": "elemwise_add", 
      "name": "_plus146", 
      "inputs": [[101, 0, 0], [106, 0, 0]]
    }, 
    {
      "op": "SliceChannel", 
      "name": "lstm_l_2t0_slice", 
      "attrs": {"num_outputs": "4"}, 
      "inputs": [[107, 0, 0]]
    }, 
    {
      "op": "Activation", 
      "name": "lstm_l_2t0_o", 
      "attrs": {"act_type": "sigmoid"}, 
      "inputs": [[108, 3, 0]]
    }, 
    {
      "op": "Activation", 
      "name": "lstm_l_2t0_f", 
      "attrs": {"act_type": "sigmoid"}, 
      "inputs": [[108, 1, 0]]
    }, 
    {
      "op": "_zeros", 
      "name": "lstm_l_2begin_state_1", 
      "attrs": {
        "__layout__": "NC", 
        "dtype": "float32", 
        "shape": "(0, 94)"
      }, 
      "inputs": []
    }, 
    {
      "op": "where", 
      "name": "where331", 
      "inputs": [[38, 37, 0], [111, 0, 0], [111, 0, 0]]
    }, 
    {
      "op": "elemwise_mul", 
      "name": "_mul342", 
      "inputs": [[110, 0, 0], [112, 0, 0]]
    }, 
    {
      "op": "Activation", 
      "name": "lstm_l_2t0_i", 
      "attrs": {"act_type": "sigmoid"}, 
      "inputs": [[108, 0, 0]]
    }, 
    {
      "op": "Activation", 
      "name": "lstm_l_2t0_c", 
      "attrs": {"act_type": "tanh"}, 
      "inputs": [[108, 2, 0]]
    }, 
    {
      "op": "elemwise_mul", 
      "name": "_mul343", 
      "inputs": [[114, 0, 0], [115, 0, 0]]
    }, 
    {
      "op": "elemwise_add", 
      "name": "lstm_l_2t0_state", 
      "inputs": [[113, 0, 0], [116, 0, 0]]
    }, 
    {
      "op": "Activation", 
      "name": "activation122", 
      "attrs": {"act_type": "tanh"}, 
      "inputs": [[117, 0, 0]]
    }, 
    {
      "op": "elemwise_mul", 
      "name": "lstm_l_2t0_out", 
      "inputs": [[109, 0, 0], [118, 0, 0]]
    }, 
    {
      "op": "elemwise_add", 
      "name": "lstm_l_2t0_out_plus_residual", 
      "inputs": [[119, 0, 0], [98, 0, 0]]
    }, 
    {
      "op": "null", 
      "name": "lstm_l_3i2h_weight", 
      "inputs": []
    }, 
    {
      "op": "null", 
      "name": "lstm_l_3i2h_bias", 
      "attrs": {"__init__": "[\"lstmbias\", {\"forget_bias\": 1.0}]"}, 
      "inputs": []
    }, 
    {
      "op": "FullyConnected", 
      "name": "lstm_l_3t0_i2h", 
      "attrs": {"num_hidden": "376"}, 
      "inputs": [[120, 0, 0], [121, 0, 0], [122, 0, 0]]
    }, 
    {
      "op": "_zeros", 
      "name": "lstm_l_3begin_state_0", 
      "attrs": {
        "__layout__": "NC", 
        "dtype": "float32", 
        "shape": "(0, 94)"
      }, 
      "inputs": []
    }, 
    {
      "op": "where", 
      "name": "where332", 
      "inputs": [[38, 37, 0], [124, 0, 0], [124, 0, 0]]
    }, 
    {
      "op": "null", 
      "name": "lstm_l_3h2h_weight", 
      "inputs": []
    }, 
    {
      "op": "null", 
      "name": "lstm_l_3h2h_bias", 
      "inputs": []
    }, 
    {
      "op": "FullyConnected", 
      "name": "lstm_l_3t0_h2h", 
      "attrs": {"num_hidden": "376"}, 
      "inputs": [[125, 0, 0], [126, 0, 0], [127, 0, 0]]
    }, 
    {
      "op": "elemwise_add", 
      "name": "_plus147", 
      "inputs": [[123, 0, 0], [128, 0, 0]]
    }, 
    {
      "op": "SliceChannel", 
      "name": "lstm_l_3t0_slice", 
      "attrs": {"num_outputs": "4"}, 
      "inputs": [[129, 0, 0]]
    }, 
    {
      "op": "Activation", 
      "name": "lstm_l_3t0_o", 
      "attrs": {"act_type": "sigmoid"}, 
      "inputs": [[130, 3, 0]]
    }, 
    {
      "op": "Activation", 
      "name": "lstm_l_3t0_f", 
      "attrs": {"act_type": "sigmoid"}, 
      "inputs": [[130, 1, 0]]
    }, 
    {
      "op": "_zeros", 
      "name": "lstm_l_3begin_state_1", 
      "attrs": {
        "__layout__": "NC", 
        "dtype": "float32", 
        "shape": "(0, 94)"
      }, 
      "inputs": []
    }, 
    {
      "op": "where", 
      "name": "where333", 
      "inputs": [[38, 37, 0], [133, 0, 0], [133, 0, 0]]
    }, 
    {
      "op": "elemwise_mul", 
      "name": "_mul344", 
      "inputs": [[132, 0, 0], [134, 0, 0]]
    }, 
    {
      "op": "Activation", 
      "name": "lstm_l_3t0_i", 
      "attrs": {"act_type": "sigmoid"}, 
      "inputs": [[130, 0, 0]]
    }, 
    {
      "op": "Activation", 
      "name": "lstm_l_3t0_c", 
      "attrs": {"act_type": "tanh"}, 
      "inputs": [[130, 2, 0]]
    }, 
    {
      "op": "elemwise_mul", 
      "name": "_mul345", 
      "inputs": [[136, 0, 0], [137, 0, 0]]
    }, 
    {
      "op": "elemwise_add", 
      "name": "lstm_l_3t0_state", 
      "inputs": [[135, 0, 0], [138, 0, 0]]
    }, 
    {
      "op": "Activation", 
      "name": "activation123", 
      "attrs": {"act_type": "tanh"}, 
      "inputs": [[139, 0, 0]]
    }, 
    {
      "op": "elemwise_mul", 
      "name": "lstm_l_3t0_out", 
      "inputs": [[131, 0, 0], [140, 0, 0]]
    }, 
    {
      "op": "elemwise_add", 
      "name": "lstm_l_3t0_out_plus_residual", 
      "inputs": [[141, 0, 0], [120, 0, 0]]
    }, 
    {
      "op": "null", 
      "name": "mu_Noneproj_weight", 
      "inputs": []
    }, 
    {
      "op": "null", 
      "name": "mu_Noneproj_bias", 
      "inputs": []
    }, 
    {
      "op": "FullyConnected", 
      "name": "fullyconnected48", 
      "attrs": {"num_hidden": "1"}, 
      "inputs": [[142, 0, 0], [143, 0, 0], [144, 0, 0]]
    }, 
    {
      "op": "elemwise_mul", 
      "name": "_mul349", 
      "inputs": [[145, 0, 0], [32, 0, 0]]
    }, 
    {
      "op": "where", 
      "name": "where342", 
      "inputs": [[38, 37, 0], [52, 0, 0], [146, 0, 0]]
    }, 
    {
      "op": "where", 
      "name": "where343", 
      "inputs": [[17, 37, 0], [12, 37, 0], [147, 0, 0]]
    }, 
    {
      "op": "Concat", 
      "name": "concat59", 
      "attrs": {
        "dim": "1", 
        "num_args": "16"
      }, 
      "inputs": [
        [148, 0, 0], 
        [12, 36, 0], 
        [12, 35, 0], 
        [12, 34, 0], 
        [12, 33, 0], 
        [12, 32, 0], 
        [12, 31, 0], 
        [12, 27, 0], 
        [12, 26, 0], 
        [12, 25, 0], 
        [12, 15, 0], 
        [12, 14, 0], 
        [12, 13, 0], 
        [12, 3, 0], 
        [12, 2, 0], 
        [12, 1, 0]
      ]
    }, 
    {
      "op": "broadcast_div", 
      "name": "broadcast_div27", 
      "inputs": [[149, 0, 0], [32, 0, 0]]
    }, 
    {
      "op": "Concat", 
      "name": "concat60", 
      "attrs": {
        "dim": "1", 
        "num_args": "3"
      }, 
      "inputs": [[41, 38, 0], [34, 0, 0], [150, 0, 0]]
    }, 
    {
      "op": "FullyConnected", 
      "name": "lstm_l_0t1_i2h", 
      "attrs": {"num_hidden": "376"}, 
      "inputs": [[151, 0, 0], [56, 0, 0], [57, 0, 0]]
    }, 
    {
      "op": "ones_like", 
      "name": "ones_like196", 
      "inputs": [[76, 0, 0]]
    }, 
    {
      "op": "Dropout", 
      "name": "dropout192", 
      "attrs": {"p": "0.1"}, 
      "inputs": [[153, 0, 0]]
    }, 
    {
      "op": "where", 
      "name": "where334", 
      "inputs": [[154, 0, 0], [76, 0, 0], [60, 0, 0]]
    }, 
    {
      "op": "where", 
      "name": "where344", 
      "inputs": [[38, 38, 0], [59, 0, 0], [155, 0, 0]]
    }, 
    {
      "op": "FullyConnected", 
      "name": "lstm_l_0t1_h2h", 
      "attrs": {"num_hidden": "376"}, 
      "inputs": [[156, 0, 0], [61, 0, 0], [62, 0, 0]]
    }, 
    {
      "op": "elemwise_add", 
      "name": "_plus150", 
      "inputs": [[152, 0, 0], [157, 0, 0]]
    }, 
    {
      "op": "SliceChannel", 
      "name": "lstm_l_0t1_slice", 
      "attrs": {"num_outputs": "4"}, 
      "inputs": [[158, 0, 0]]
    }, 
    {
      "op": "Activation", 
      "name": "lstm_l_0t1_o", 
      "attrs": {"act_type": "sigmoid"}, 
      "inputs": [[159, 3, 0]]
    }, 
    {
      "op": "Activation", 
      "name": "lstm_l_0t1_f", 
      "attrs": {"act_type": "sigmoid"}, 
      "inputs": [[159, 1, 0]]
    }, 
    {
      "op": "ones_like", 
      "name": "ones_like197", 
      "inputs": [[74, 0, 0]]
    }, 
    {
      "op": "Dropout", 
      "name": "dropout193", 
      "attrs": {"p": "0.1"}, 
      "inputs": [[162, 0, 0]]
    }, 
    {
      "op": "where", 
      "name": "where335", 
      "inputs": [[163, 0, 0], [74, 0, 0], [69, 0, 0]]
    }, 
    {
      "op": "where", 
      "name": "where345", 
      "inputs": [[38, 38, 0], [68, 0, 0], [164, 0, 0]]
    }, 
    {
      "op": "elemwise_mul", 
      "name": "_mul352", 
      "inputs": [[161, 0, 0], [165, 0, 0]]
    }, 
    {
      "op": "Activation", 
      "name": "lstm_l_0t1_i", 
      "attrs": {"act_type": "sigmoid"}, 
      "inputs": [[159, 0, 0]]
    }, 
    {
      "op": "Activation", 
      "name": "lstm_l_0t1_c", 
      "attrs": {"act_type": "tanh"}, 
      "inputs": [[159, 2, 0]]
    }, 
    {
      "op": "elemwise_mul", 
      "name": "_mul353", 
      "inputs": [[167, 0, 0], [168, 0, 0]]
    }, 
    {
      "op": "elemwise_add", 
      "name": "lstm_l_0t1_state", 
      "inputs": [[166, 0, 0], [169, 0, 0]]
    }, 
    {
      "op": "Activation", 
      "name": "activation125", 
      "attrs": {"act_type": "tanh"}, 
      "inputs": [[170, 0, 0]]
    }, 
    {
      "op": "elemwise_mul", 
      "name": "lstm_l_0t1_out", 
      "inputs": [[160, 0, 0], [171, 0, 0]]
    }, 
    {
      "op": "FullyConnected", 
      "name": "lstm_l_1t1_i2h", 
      "attrs": {"num_hidden": "376"}, 
      "inputs": [[172, 0, 0], [77, 0, 0], [78, 0, 0]]
    }, 
    {
      "op": "ones_like", 
      "name": "ones_like198", 
      "inputs": [[97, 0, 0]]
    }, 
    {
      "op": "Dropout", 
      "name": "dropout194", 
      "attrs": {"p": "0.1"}, 
      "inputs": [[174, 0, 0]]
    }, 
    {
      "op": "where", 
      "name": "where336", 
      "inputs": [[175, 0, 0], [97, 0, 0], [81, 0, 0]]
    }, 
    {
      "op": "where", 
      "name": "where346", 
      "inputs": [[38, 38, 0], [80, 0, 0], [176, 0, 0]]
    }, 
    {
      "op": "FullyConnected", 
      "name": "lstm_l_1t1_h2h", 
      "attrs": {"num_hidden": "376"}, 
      "inputs": [[177, 0, 0], [82, 0, 0], [83, 0, 0]]
    }, 
    {
      "op": "elemwise_add", 
      "name": "_plus151", 
      "inputs": [[173, 0, 0], [178, 0, 0]]
    }, 
    {
      "op": "SliceChannel", 
      "name": "lstm_l_1t1_slice", 
      "attrs": {"num_outputs": "4"}, 
      "inputs": [[179, 0, 0]]
    }, 
    {
      "op": "Activation", 
      "name": "lstm_l_1t1_o", 
      "attrs": {"act_type": "sigmoid"}, 
      "inputs": [[180, 3, 0]]
    }, 
    {
      "op": "Activation", 
      "name": "lstm_l_1t1_f", 
      "attrs": {"act_type": "sigmoid"}, 
      "inputs": [[180, 1, 0]]
    }, 
    {
      "op": "ones_like", 
      "name": "ones_like199", 
      "inputs": [[95, 0, 0]]
    }, 
    {
      "op": "Dropout", 
      "name": "dropout195", 
      "attrs": {"p": "0.1"}, 
      "inputs": [[183, 0, 0]]
    }, 
    {
      "op": "where", 
      "name": "where337", 
      "inputs": [[184, 0, 0], [95, 0, 0], [90, 0, 0]]
    }, 
    {
      "op": "where", 
      "name": "where347", 
      "inputs": [[38, 38, 0], [89, 0, 0], [185, 0, 0]]
    }, 
    {
      "op": "elemwise_mul", 
      "name": "_mul354", 
      "inputs": [[182, 0, 0], [186, 0, 0]]
    }, 
    {
      "op": "Activation", 
      "name": "lstm_l_1t1_i", 
      "attrs": {"act_type": "sigmoid"}, 
      "inputs": [[180, 0, 0]]
    }, 
    {
      "op": "Activation", 
      "name": "lstm_l_1t1_c", 
      "attrs": {"act_type": "tanh"}, 
      "inputs": [[180, 2, 0]]
    }, 
    {
      "op": "elemwise_mul", 
      "name": "_mul355", 
      "inputs": [[188, 0, 0], [189, 0, 0]]
    }, 
    {
      "op": "elemwise_add", 
      "name": "lstm_l_1t1_state", 
      "inputs": [[187, 0, 0], [190, 0, 0]]
    }, 
    {
      "op": "Activation", 
      "name": "activation126", 
      "attrs": {"act_type": "tanh"}, 
      "inputs": [[191, 0, 0]]
    }, 
    {
      "op": "elemwise_mul", 
      "name": "lstm_l_1t1_out", 
      "inputs": [[181, 0, 0], [192, 0, 0]]
    }, 
    {
      "op": "elemwise_add", 
      "name": "lstm_l_1t1_out_plus_residual", 
      "inputs": [[193, 0, 0], [172, 0, 0]]
    }, 
    {
      "op": "FullyConnected", 
      "name": "lstm_l_2t1_i2h", 
      "attrs": {"num_hidden": "376"}, 
      "inputs": [[194, 0, 0], [99, 0, 0], [100, 0, 0]]
    }, 
    {
      "op": "ones_like", 
      "name": "ones_like200", 
      "inputs": [[119, 0, 0]]
    }, 
    {
      "op": "Dropout", 
      "name": "dropout196", 
      "attrs": {"p": "0.1"}, 
      "inputs": [[196, 0, 0]]
    }, 
    {
      "op": "where", 
      "name": "where338", 
      "inputs": [[197, 0, 0], [119, 0, 0], [103, 0, 0]]
    }, 
    {
      "op": "where", 
      "name": "where348", 
      "inputs": [[38, 38, 0], [102, 0, 0], [198, 0, 0]]
    }, 
    {
      "op": "FullyConnected", 
      "name": "lstm_l_2t1_h2h", 
      "attrs": {"num_hidden": "376"}, 
      "inputs": [[199, 0, 0], [104, 0, 0], [105, 0, 0]]
    }, 
    {
      "op": "elemwise_add", 
      "name": "_plus152", 
      "inputs": [[195, 0, 0], [200, 0, 0]]
    }, 
    {
      "op": "SliceChannel", 
      "name": "lstm_l_2t1_slice", 
      "attrs": {"num_outputs": "4"}, 
      "inputs": [[201, 0, 0]]
    }, 
    {
      "op": "Activation", 
      "name": "lstm_l_2t1_o", 
      "attrs": {"act_type": "sigmoid"}, 
      "inputs": [[202, 3, 0]]
    }, 
    {
      "op": "Activation", 
      "name": "lstm_l_2t1_f", 
      "attrs": {"act_type": "sigmoid"}, 
      "inputs": [[202, 1, 0]]
    }, 
    {
      "op": "ones_like", 
      "name": "ones_like201", 
      "inputs": [[117, 0, 0]]
    }, 
    {
      "op": "Dropout", 
      "name": "dropout197", 
      "attrs": {"p": "0.1"}, 
      "inputs": [[205, 0, 0]]
    }, 
    {
      "op": "where", 
      "name": "where339", 
      "inputs": [[206, 0, 0], [117, 0, 0], [112, 0, 0]]
    }, 
    {
      "op": "where", 
      "name": "where349", 
      "inputs": [[38, 38, 0], [111, 0, 0], [207, 0, 0]]
    }, 
    {
      "op": "elemwise_mul", 
      "name": "_mul356", 
      "inputs": [[204, 0, 0], [208, 0, 0]]
    }, 
    {
      "op": "Activation", 
      "name": "lstm_l_2t1_i", 
      "attrs": {"act_type": "sigmoid"}, 
      "inputs": [[202, 0, 0]]
    }, 
    {
      "op": "Activation", 
      "name": "lstm_l_2t1_c", 
      "attrs": {"act_type": "tanh"}, 
      "inputs": [[202, 2, 0]]
    }, 
    {
      "op": "elemwise_mul", 
      "name": "_mul357", 
      "inputs": [[210, 0, 0], [211, 0, 0]]
    }, 
    {
      "op": "elemwise_add", 
      "name": "lstm_l_2t1_state", 
      "inputs": [[209, 0, 0], [212, 0, 0]]
    }, 
    {
      "op": "Activation", 
      "name": "activation127", 
      "attrs": {"act_type": "tanh"}, 
      "inputs": [[213, 0, 0]]
    }, 
    {
      "op": "elemwise_mul", 
      "name": "lstm_l_2t1_out", 
      "inputs": [[203, 0, 0], [214, 0, 0]]
    }, 
    {
      "op": "elemwise_add", 
      "name": "lstm_l_2t1_out_plus_residual", 
      "inputs": [[215, 0, 0], [194, 0, 0]]
    }, 
    {
      "op": "FullyConnected", 
      "name": "lstm_l_3t1_i2h", 
      "attrs": {"num_hidden": "376"}, 
      "inputs": [[216, 0, 0], [121, 0, 0], [122, 0, 0]]
    }, 
    {
      "op": "ones_like", 
      "name": "ones_like202", 
      "inputs": [[141, 0, 0]]
    }, 
    {
      "op": "Dropout", 
      "name": "dropout198", 
      "attrs": {"p": "0.1"}, 
      "inputs": [[218, 0, 0]]
    }, 
    {
      "op": "where", 
      "name": "where340", 
      "inputs": [[219, 0, 0], [141, 0, 0], [125, 0, 0]]
    }, 
    {
      "op": "where", 
      "name": "where350", 
      "inputs": [[38, 38, 0], [124, 0, 0], [220, 0, 0]]
    }, 
    {
      "op": "FullyConnected", 
      "name": "lstm_l_3t1_h2h", 
      "attrs": {"num_hidden": "376"}, 
      "inputs": [[221, 0, 0], [126, 0, 0], [127, 0, 0]]
    }, 
    {
      "op": "elemwise_add", 
      "name": "_plus153", 
      "inputs": [[217, 0, 0], [222, 0, 0]]
    }, 
    {
      "op": "SliceChannel", 
      "name": "lstm_l_3t1_slice", 
      "attrs": {"num_outputs": "4"}, 
      "inputs": [[223, 0, 0]]
    }, 
    {
      "op": "Activation", 
      "name": "lstm_l_3t1_o", 
      "attrs": {"act_type": "sigmoid"}, 
      "inputs": [[224, 3, 0]]
    }, 
    {
      "op": "Activation", 
      "name": "lstm_l_3t1_f", 
      "attrs": {"act_type": "sigmoid"}, 
      "inputs": [[224, 1, 0]]
    }, 
    {
      "op": "ones_like", 
      "name": "ones_like203", 
      "inputs": [[139, 0, 0]]
    }, 
    {
      "op": "Dropout", 
      "name": "dropout199", 
      "attrs": {"p": "0.1"}, 
      "inputs": [[227, 0, 0]]
    }, 
    {
      "op": "where", 
      "name": "where341", 
      "inputs": [[228, 0, 0], [139, 0, 0], [134, 0, 0]]
    }, 
    {
      "op": "where", 
      "name": "where351", 
      "inputs": [[38, 38, 0], [133, 0, 0], [229, 0, 0]]
    }, 
    {
      "op": "elemwise_mul", 
      "name": "_mul358", 
      "inputs": [[226, 0, 0], [230, 0, 0]]
    }, 
    {
      "op": "Activation", 
      "name": "lstm_l_3t1_i", 
      "attrs": {"act_type": "sigmoid"}, 
      "inputs": [[224, 0, 0]]
    }, 
    {
      "op": "Activation", 
      "name": "lstm_l_3t1_c", 
      "attrs": {"act_type": "tanh"}, 
      "inputs": [[224, 2, 0]]
    }, 
    {
      "op": "elemwise_mul", 
      "name": "_mul359", 
      "inputs": [[232, 0, 0], [233, 0, 0]]
    }, 
    {
      "op": "elemwise_add", 
      "name": "lstm_l_3t1_state", 
      "inputs": [[231, 0, 0], [234, 0, 0]]
    }, 
    {
      "op": "Activation", 
      "name": "activation128", 
      "attrs": {"act_type": "tanh"}, 
      "inputs": [[235, 0, 0]]
    }, 
    {
      "op": "elemwise_mul", 
      "name": "lstm_l_3t1_out", 
      "inputs": [[225, 0, 0], [236, 0, 0]]
    }, 
    {
      "op": "elemwise_add", 
      "name": "lstm_l_3t1_out_plus_residual", 
      "inputs": [[237, 0, 0], [216, 0, 0]]
    }, 
    {
      "op": "FullyConnected", 
      "name": "fullyconnected50", 
      "attrs": {"num_hidden": "1"}, 
      "inputs": [[238, 0, 0], [143, 0, 0], [144, 0, 0]]
    }, 
    {
      "op": "elemwise_mul", 
      "name": "_mul363", 
      "inputs": [[239, 0, 0], [32, 0, 0]]
    }, 
    {
      "op": "where", 
      "name": "where360", 
      "inputs": [[38, 38, 0], [51, 0, 0], [240, 0, 0]]
    }, 
    {
      "op": "where", 
      "name": "where361", 
      "inputs": [[17, 38, 0], [12, 38, 0], [241, 0, 0]]
    }, 
    {
      "op": "Concat", 
      "name": "concat61", 
      "attrs": {
        "dim": "1", 
        "num_args": "16"
      }, 
      "inputs": [
        [242, 0, 0], 
        [148, 0, 0], 
        [12, 36, 0], 
        [12, 35, 0], 
        [12, 34, 0], 
        [12, 33, 0], 
        [12, 32, 0], 
        [12, 28, 0], 
        [12, 27, 0], 
        [12, 26, 0], 
        [12, 16, 0], 
        [12, 15, 0], 
        [12, 14, 0], 
        [12, 4, 0], 
        [12, 3, 0], 
        [12, 2, 0]
      ]
    }, 
    {
      "op": "broadcast_div", 
      "name": "broadcast_div28", 
      "inputs": [[243, 0, 0], [32, 0, 0]]
    }, 
    {
      "op": "Concat", 
      "name": "concat62", 
      "attrs": {
        "dim": "1", 
        "num_args": "3"
      }, 
      "inputs": [[41, 39, 0], [34, 0, 0], [244, 0, 0]]
    }, 
    {
      "op": "FullyConnected", 
      "name": "lstm_l_0t2_i2h", 
      "attrs": {"num_hidden": "376"}, 
      "inputs": [[245, 0, 0], [56, 0, 0], [57, 0, 0]]
    }, 
    {
      "op": "ones_like", 
      "name": "ones_like204", 
      "inputs": [[172, 0, 0]]
    }, 
    {
      "op": "Dropout", 
      "name": "dropout200", 
      "attrs": {"p": "0.1"}, 
      "inputs": [[247, 0, 0]]
    }, 
    {
      "op": "where", 
      "name": "where352", 
      "inputs": [[248, 0, 0], [172, 0, 0], [156, 0, 0]]
    }, 
    {
      "op": "where", 
      "name": "where362", 
      "inputs": [[38, 39, 0], [59, 0, 0], [249, 0, 0]]
    }, 
    {
      "op": "FullyConnected", 
      "name": "lstm_l_0t2_h2h", 
      "attrs": {"num_hidden": "376"}, 
      "inputs": [[250, 0, 0], [61, 0, 0], [62, 0, 0]]
    }, 
    {
      "op": "elemwise_add", 
      "name": "_plus156", 
      "inputs": [[246, 0, 0], [251, 0, 0]]
    }, 
    {
      "op": "SliceChannel", 
      "name": "lstm_l_0t2_slice", 
      "attrs": {"num_outputs": "4"}, 
      "inputs": [[252, 0, 0]]
    }, 
    {
      "op": "Activation", 
      "name": "lstm_l_0t2_o", 
      "attrs": {"act_type": "sigmoid"}, 
      "inputs": [[253, 3, 0]]
    }, 
    {
      "op": "Activation", 
      "name": "lstm_l_0t2_f", 
      "attrs": {"act_type": "sigmoid"}, 
      "inputs": [[253, 1, 0]]
    }, 
    {
      "op": "ones_like", 
      "name": "ones_like205", 
      "inputs": [[170, 0, 0]]
    }, 
    {
      "op": "Dropout", 
      "name": "dropout201", 
      "attrs": {"p": "0.1"}, 
      "inputs": [[256, 0, 0]]
    }, 
    {
      "op": "where", 
      "name": "where353", 
      "inputs": [[257, 0, 0], [170, 0, 0], [165, 0, 0]]
    }, 
    {
      "op": "where", 
      "name": "where363", 
      "inputs": [[38, 39, 0], [68, 0, 0], [258, 0, 0]]
    }, 
    {
      "op": "elemwise_mul", 
      "name": "_mul366", 
      "inputs": [[255, 0, 0], [259, 0, 0]]
    }, 
    {
      "op": "Activation", 
      "name": "lstm_l_0t2_i", 
      "attrs": {"act_type": "sigmoid"}, 
      "inputs": [[253, 0, 0]]
    }, 
    {
      "op": "Activation", 
      "name": "lstm_l_0t2_c", 
      "attrs": {"act_type": "tanh"}, 
      "inputs": [[253, 2, 0]]
    }, 
    {
      "op": "elemwise_mul", 
      "name": "_mul367", 
      "inputs": [[261, 0, 0], [262, 0, 0]]
    }, 
    {
      "op": "elemwise_add", 
      "name": "lstm_l_0t2_state", 
      "inputs": [[260, 0, 0], [263, 0, 0]]
    }, 
    {
      "op": "Activation", 
      "name": "activation130", 
      "attrs": {"act_type": "tanh"}, 
      "inputs": [[264, 0, 0]]
    }, 
    {
      "op": "elemwise_mul", 
      "name": "lstm_l_0t2_out", 
      "inputs": [[254, 0, 0], [265, 0, 0]]
    }, 
    {
      "op": "FullyConnected", 
      "name": "lstm_l_1t2_i2h", 
      "attrs": {"num_hidden": "376"}, 
      "inputs": [[266, 0, 0], [77, 0, 0], [78, 0, 0]]
    }, 
    {
      "op": "ones_like", 
      "name": "ones_like206", 
      "inputs": [[193, 0, 0]]
    }, 
    {
      "op": "Dropout", 
      "name": "dropout202", 
      "attrs": {"p": "0.1"}, 
      "inputs": [[268, 0, 0]]
    }, 
    {
      "op": "where", 
      "name": "where354", 
      "inputs": [[269, 0, 0], [193, 0, 0], [177, 0, 0]]
    }, 
    {
      "op": "where", 
      "name": "where364", 
      "inputs": [[38, 39, 0], [80, 0, 0], [270, 0, 0]]
    }, 
    {
      "op": "FullyConnected", 
      "name": "lstm_l_1t2_h2h", 
      "attrs": {"num_hidden": "376"}, 
      "inputs": [[271, 0, 0], [82, 0, 0], [83, 0, 0]]
    }, 
    {
      "op": "elemwise_add", 
      "name": "_plus157", 
      "inputs": [[267, 0, 0], [272, 0, 0]]
    }, 
    {
      "op": "SliceChannel", 
      "name": "lstm_l_1t2_slice", 
      "attrs": {"num_outputs": "4"}, 
      "inputs": [[273, 0, 0]]
    }, 
    {
      "op": "Activation", 
      "name": "lstm_l_1t2_o", 
      "attrs": {"act_type": "sigmoid"}, 
      "inputs": [[274, 3, 0]]
    }, 
    {
      "op": "Activation", 
      "name": "lstm_l_1t2_f", 
      "attrs": {"act_type": "sigmoid"}, 
      "inputs": [[274, 1, 0]]
    }, 
    {
      "op": "ones_like", 
      "name": "ones_like207", 
      "inputs": [[191, 0, 0]]
    }, 
    {
      "op": "Dropout", 
      "name": "dropout203", 
      "attrs": {"p": "0.1"}, 
      "inputs": [[277, 0, 0]]
    }, 
    {
      "op": "where", 
      "name": "where355", 
      "inputs": [[278, 0, 0], [191, 0, 0], [186, 0, 0]]
    }, 
    {
      "op": "where", 
      "name": "where365", 
      "inputs": [[38, 39, 0], [89, 0, 0], [279, 0, 0]]
    }, 
    {
      "op": "elemwise_mul", 
      "name": "_mul368", 
      "inputs": [[276, 0, 0], [280, 0, 0]]
    }, 
    {
      "op": "Activation", 
      "name": "lstm_l_1t2_i", 
      "attrs": {"act_type": "sigmoid"}, 
      "inputs": [[274, 0, 0]]
    }, 
    {
      "op": "Activation", 
      "name": "lstm_l_1t2_c", 
      "attrs": {"act_type": "tanh"}, 
      "inputs": [[274, 2, 0]]
    }, 
    {
      "op": "elemwise_mul", 
      "name": "_mul369", 
      "inputs": [[282, 0, 0], [283, 0, 0]]
    }, 
    {
      "op": "elemwise_add", 
      "name": "lstm_l_1t2_state", 
      "inputs": [[281, 0, 0], [284, 0, 0]]
    }, 
    {
      "op": "Activation", 
      "name": "activation131", 
      "attrs": {"act_type": "tanh"}, 
      "inputs": [[285, 0, 0]]
    }, 
    {
      "op": "elemwise_mul", 
      "name": "lstm_l_1t2_out", 
      "inputs": [[275, 0, 0], [286, 0, 0]]
    }, 
    {
      "op": "elemwise_add", 
      "name": "lstm_l_1t2_out_plus_residual", 
      "inputs": [[287, 0, 0], [266, 0, 0]]
    }, 
    {
      "op": "FullyConnected", 
      "name": "lstm_l_2t2_i2h", 
      "attrs": {"num_hidden": "376"}, 
      "inputs": [[288, 0, 0], [99, 0, 0], [100, 0, 0]]
    }, 
    {
      "op": "ones_like", 
      "name": "ones_like208", 
      "inputs": [[215, 0, 0]]
    }, 
    {
      "op": "Dropout", 
      "name": "dropout204", 
      "attrs": {"p": "0.1"}, 
      "inputs": [[290, 0, 0]]
    }, 
    {
      "op": "where", 
      "name": "where356", 
      "inputs": [[291, 0, 0], [215, 0, 0], [199, 0, 0]]
    }, 
    {
      "op": "where", 
      "name": "where366", 
      "inputs": [[38, 39, 0], [102, 0, 0], [292, 0, 0]]
    }, 
    {
      "op": "FullyConnected", 
      "name": "lstm_l_2t2_h2h", 
      "attrs": {"num_hidden": "376"}, 
      "inputs": [[293, 0, 0], [104, 0, 0], [105, 0, 0]]
    }, 
    {
      "op": "elemwise_add", 
      "name": "_plus158", 
      "inputs": [[289, 0, 0], [294, 0, 0]]
    }, 
    {
      "op": "SliceChannel", 
      "name": "lstm_l_2t2_slice", 
      "attrs": {"num_outputs": "4"}, 
      "inputs": [[295, 0, 0]]
    }, 
    {
      "op": "Activation", 
      "name": "lstm_l_2t2_o", 
      "attrs": {"act_type": "sigmoid"}, 
      "inputs": [[296, 3, 0]]
    }, 
    {
      "op": "Activation", 
      "name": "lstm_l_2t2_f", 
      "attrs": {"act_type": "sigmoid"}, 
      "inputs": [[296, 1, 0]]
    }, 
    {
      "op": "ones_like", 
      "name": "ones_like209", 
      "inputs": [[213, 0, 0]]
    }, 
    {
      "op": "Dropout", 
      "name": "dropout205", 
      "attrs": {"p": "0.1"}, 
      "inputs": [[299, 0, 0]]
    }, 
    {
      "op": "where", 
      "name": "where357", 
      "inputs": [[300, 0, 0], [213, 0, 0], [208, 0, 0]]
    }, 
    {
      "op": "where", 
      "name": "where367", 
      "inputs": [[38, 39, 0], [111, 0, 0], [301, 0, 0]]
    }, 
    {
      "op": "elemwise_mul", 
      "name": "_mul370", 
      "inputs": [[298, 0, 0], [302, 0, 0]]
    }, 
    {
      "op": "Activation", 
      "name": "lstm_l_2t2_i", 
      "attrs": {"act_type": "sigmoid"}, 
      "inputs": [[296, 0, 0]]
    }, 
    {
      "op": "Activation", 
      "name": "lstm_l_2t2_c", 
      "attrs": {"act_type": "tanh"}, 
      "inputs": [[296, 2, 0]]
    }, 
    {
      "op": "elemwise_mul", 
      "name": "_mul371", 
      "inputs": [[304, 0, 0], [305, 0, 0]]
    }, 
    {
      "op": "elemwise_add", 
      "name": "lstm_l_2t2_state", 
      "inputs": [[303, 0, 0], [306, 0, 0]]
    }, 
    {
      "op": "Activation", 
      "name": "activation132", 
      "attrs": {"act_type": "tanh"}, 
      "inputs": [[307, 0, 0]]
    }, 
    {
      "op": "elemwise_mul", 
      "name": "lstm_l_2t2_out", 
      "inputs": [[297, 0, 0], [308, 0, 0]]
    }, 
    {
      "op": "elemwise_add", 
      "name": "lstm_l_2t2_out_plus_residual", 
      "inputs": [[309, 0, 0], [288, 0, 0]]
    }, 
    {
      "op": "FullyConnected", 
      "name": "lstm_l_3t2_i2h", 
      "attrs": {"num_hidden": "376"}, 
      "inputs": [[310, 0, 0], [121, 0, 0], [122, 0, 0]]
    }, 
    {
      "op": "ones_like", 
      "name": "ones_like210", 
      "inputs": [[237, 0, 0]]
    }, 
    {
      "op": "Dropout", 
      "name": "dropout206", 
      "attrs": {"p": "0.1"}, 
      "inputs": [[312, 0, 0]]
    }, 
    {
      "op": "where", 
      "name": "where358", 
      "inputs": [[313, 0, 0], [237, 0, 0], [221, 0, 0]]
    }, 
    {
      "op": "where", 
      "name": "where368", 
      "inputs": [[38, 39, 0], [124, 0, 0], [314, 0, 0]]
    }, 
    {
      "op": "FullyConnected", 
      "name": "lstm_l_3t2_h2h", 
      "attrs": {"num_hidden": "376"}, 
      "inputs": [[315, 0, 0], [126, 0, 0], [127, 0, 0]]
    }, 
    {
      "op": "elemwise_add", 
      "name": "_plus159", 
      "inputs": [[311, 0, 0], [316, 0, 0]]
    }, 
    {
      "op": "SliceChannel", 
      "name": "lstm_l_3t2_slice", 
      "attrs": {"num_outputs": "4"}, 
      "inputs": [[317, 0, 0]]
    }, 
    {
      "op": "Activation", 
      "name": "lstm_l_3t2_o", 
      "attrs": {"act_type": "sigmoid"}, 
      "inputs": [[318, 3, 0]]
    }, 
    {
      "op": "Activation", 
      "name": "lstm_l_3t2_f", 
      "attrs": {"act_type": "sigmoid"}, 
      "inputs": [[318, 1, 0]]
    }, 
    {
      "op": "ones_like", 
      "name": "ones_like211", 
      "inputs": [[235, 0, 0]]
    }, 
    {
      "op": "Dropout", 
      "name": "dropout207", 
      "attrs": {"p": "0.1"}, 
      "inputs": [[321, 0, 0]]
    }, 
    {
      "op": "where", 
      "name": "where359", 
      "inputs": [[322, 0, 0], [235, 0, 0], [230, 0, 0]]
    }, 
    {
      "op": "where", 
      "name": "where369", 
      "inputs": [[38, 39, 0], [133, 0, 0], [323, 0, 0]]
    }, 
    {
      "op": "elemwise_mul", 
      "name": "_mul372", 
      "inputs": [[320, 0, 0], [324, 0, 0]]
    }, 
    {
      "op": "Activation", 
      "name": "lstm_l_3t2_i", 
      "attrs": {"act_type": "sigmoid"}, 
      "inputs": [[318, 0, 0]]
    }, 
    {
      "op": "Activation", 
      "name": "lstm_l_3t2_c", 
      "attrs": {"act_type": "tanh"}, 
      "inputs": [[318, 2, 0]]
    }, 
    {
      "op": "elemwise_mul", 
      "name": "_mul373", 
      "inputs": [[326, 0, 0], [327, 0, 0]]
    }, 
    {
      "op": "elemwise_add", 
      "name": "lstm_l_3t2_state", 
      "inputs": [[325, 0, 0], [328, 0, 0]]
    }, 
    {
      "op": "Activation", 
      "name": "activation133", 
      "attrs": {"act_type": "tanh"}, 
      "inputs": [[329, 0, 0]]
    }, 
    {
      "op": "elemwise_mul", 
      "name": "lstm_l_3t2_out", 
      "inputs": [[319, 0, 0], [330, 0, 0]]
    }, 
    {
      "op": "elemwise_add", 
      "name": "lstm_l_3t2_out_plus_residual", 
      "inputs": [[331, 0, 0], [310, 0, 0]]
    }, 
    {
      "op": "FullyConnected", 
      "name": "fullyconnected52", 
      "attrs": {"num_hidden": "1"}, 
      "inputs": [[332, 0, 0], [143, 0, 0], [144, 0, 0]]
    }, 
    {
      "op": "elemwise_mul", 
      "name": "_mul377", 
      "inputs": [[333, 0, 0], [32, 0, 0]]
    }, 
    {
      "op": "where", 
      "name": "where378", 
      "inputs": [[38, 39, 0], [50, 0, 0], [334, 0, 0]]
    }, 
    {
      "op": "where", 
      "name": "where379", 
      "inputs": [[17, 39, 0], [12, 39, 0], [335, 0, 0]]
    }, 
    {
      "op": "Concat", 
      "name": "concat63", 
      "attrs": {
        "dim": "1", 
        "num_args": "16"
      }, 
      "inputs": [
        [336, 0, 0], 
        [242, 0, 0], 
        [148, 0, 0], 
        [12, 36, 0], 
        [12, 35, 0], 
        [12, 34, 0], 
        [12, 33, 0], 
        [12, 29, 0], 
        [12, 28, 0], 
        [12, 27, 0], 
        [12, 17, 0], 
        [12, 16, 0], 
        [12, 15, 0], 
        [12, 5, 0], 
        [12, 4, 0], 
        [12, 3, 0]
      ]
    }, 
    {
      "op": "broadcast_div", 
      "name": "broadcast_div29", 
      "inputs": [[337, 0, 0], [32, 0, 0]]
    }, 
    {
      "op": "Concat", 
      "name": "concat64", 
      "attrs": {
        "dim": "1", 
        "num_args": "3"
      }, 
      "inputs": [[41, 40, 0], [34, 0, 0], [338, 0, 0]]
    }, 
    {
      "op": "FullyConnected", 
      "name": "lstm_l_0t3_i2h", 
      "attrs": {"num_hidden": "376"}, 
      "inputs": [[339, 0, 0], [56, 0, 0], [57, 0, 0]]
    }, 
    {
      "op": "ones_like", 
      "name": "ones_like212", 
      "inputs": [[266, 0, 0]]
    }, 
    {
      "op": "Dropout", 
      "name": "dropout208", 
      "attrs": {"p": "0.1"}, 
      "inputs": [[341, 0, 0]]
    }, 
    {
      "op": "where", 
      "name": "where370", 
      "inputs": [[342, 0, 0], [266, 0, 0], [250, 0, 0]]
    }, 
    {
      "op": "where", 
      "name": "where380", 
      "inputs": [[38, 40, 0], [59, 0, 0], [343, 0, 0]]
    }, 
    {
      "op": "FullyConnected", 
      "name": "lstm_l_0t3_h2h", 
      "attrs": {"num_hidden": "376"}, 
      "inputs": [[344, 0, 0], [61, 0, 0], [62, 0, 0]]
    }, 
    {
      "op": "elemwise_add", 
      "name": "_plus162", 
      "inputs": [[340, 0, 0], [345, 0, 0]]
    }, 
    {
      "op": "SliceChannel", 
      "name": "lstm_l_0t3_slice", 
      "attrs": {"num_outputs": "4"}, 
      "inputs": [[346, 0, 0]]
    }, 
    {
      "op": "Activation", 
      "name": "lstm_l_0t3_o", 
      "attrs": {"act_type": "sigmoid"}, 
      "inputs": [[347, 3, 0]]
    }, 
    {
      "op": "Activation", 
      "name": "lstm_l_0t3_f", 
      "attrs": {"act_type": "sigmoid"}, 
      "inputs": [[347, 1, 0]]
    }, 
    {
      "op": "ones_like", 
      "name": "ones_like213", 
      "inputs": [[264, 0, 0]]
    }, 
    {
      "op": "Dropout", 
      "name": "dropout209", 
      "attrs": {"p": "0.1"}, 
      "inputs": [[350, 0, 0]]
    }, 
    {
      "op": "where", 
      "name": "where371", 
      "inputs": [[351, 0, 0], [264, 0, 0], [259, 0, 0]]
    }, 
    {
      "op": "where", 
      "name": "where381", 
      "inputs": [[38, 40, 0], [68, 0, 0], [352, 0, 0]]
    }, 
    {
      "op": "elemwise_mul", 
      "name": "_mul380", 
      "inputs": [[349, 0, 0], [353, 0, 0]]
    }, 
    {
      "op": "Activation", 
      "name": "lstm_l_0t3_i", 
      "attrs": {"act_type": "sigmoid"}, 
      "inputs": [[347, 0, 0]]
    }, 
    {
      "op": "Activation", 
      "name": "lstm_l_0t3_c", 
      "attrs": {"act_type": "tanh"}, 
      "inputs": [[347, 2, 0]]
    }, 
    {
      "op": "elemwise_mul", 
      "name": "_mul381", 
      "inputs": [[355, 0, 0], [356, 0, 0]]
    }, 
    {
      "op": "elemwise_add", 
      "name": "lstm_l_0t3_state", 
      "inputs": [[354, 0, 0], [357, 0, 0]]
    }, 
    {
      "op": "Activation", 
      "name": "activation135", 
      "attrs": {"act_type": "tanh"}, 
      "inputs": [[358, 0, 0]]
    }, 
    {
      "op": "elemwise_mul", 
      "name": "lstm_l_0t3_out", 
      "inputs": [[348, 0, 0], [359, 0, 0]]
    }, 
    {
      "op": "FullyConnected", 
      "name": "lstm_l_1t3_i2h", 
      "attrs": {"num_hidden": "376"}, 
      "inputs": [[360, 0, 0], [77, 0, 0], [78, 0, 0]]
    }, 
    {
      "op": "ones_like", 
      "name": "ones_like214", 
      "inputs": [[287, 0, 0]]
    }, 
    {
      "op": "Dropout", 
      "name": "dropout210", 
      "attrs": {"p": "0.1"}, 
      "inputs": [[362, 0, 0]]
    }, 
    {
      "op": "where", 
      "name": "where372", 
      "inputs": [[363, 0, 0], [287, 0, 0], [271, 0, 0]]
    }, 
    {
      "op": "where", 
      "name": "where382", 
      "inputs": [[38, 40, 0], [80, 0, 0], [364, 0, 0]]
    }, 
    {
      "op": "FullyConnected", 
      "name": "lstm_l_1t3_h2h", 
      "attrs": {"num_hidden": "376"}, 
      "inputs": [[365, 0, 0], [82, 0, 0], [83, 0, 0]]
    }, 
    {
      "op": "elemwise_add", 
      "name": "_plus163", 
      "inputs": [[361, 0, 0], [366, 0, 0]]
    }, 
    {
      "op": "SliceChannel", 
      "name": "lstm_l_1t3_slice", 
      "attrs": {"num_outputs": "4"}, 
      "inputs": [[367, 0, 0]]
    }, 
    {
      "op": "Activation", 
      "name": "lstm_l_1t3_o", 
      "attrs": {"act_type": "sigmoid"}, 
      "inputs": [[368, 3, 0]]
    }, 
    {
      "op": "Activation", 
      "name": "lstm_l_1t3_f", 
      "attrs": {"act_type": "sigmoid"}, 
      "inputs": [[368, 1, 0]]
    }, 
    {
      "op": "ones_like", 
      "name": "ones_like215", 
      "inputs": [[285, 0, 0]]
    }, 
    {
      "op": "Dropout", 
      "name": "dropout211", 
      "attrs": {"p": "0.1"}, 
      "inputs": [[371, 0, 0]]
    }, 
    {
      "op": "where", 
      "name": "where373", 
      "inputs": [[372, 0, 0], [285, 0, 0], [280, 0, 0]]
    }, 
    {
      "op": "where", 
      "name": "where383", 
      "inputs": [[38, 40, 0], [89, 0, 0], [373, 0, 0]]
    }, 
    {
      "op": "elemwise_mul", 
      "name": "_mul382", 
      "inputs": [[370, 0, 0], [374, 0, 0]]
    }, 
    {
      "op": "Activation", 
      "name": "lstm_l_1t3_i", 
      "attrs": {"act_type": "sigmoid"}, 
      "inputs": [[368, 0, 0]]
    }, 
    {
      "op": "Activation", 
      "name": "lstm_l_1t3_c", 
      "attrs": {"act_type": "tanh"}, 
      "inputs": [[368, 2, 0]]
    }, 
    {
      "op": "elemwise_mul", 
      "name": "_mul383", 
      "inputs": [[376, 0, 0], [377, 0, 0]]
    }, 
    {
      "op": "elemwise_add", 
      "name": "lstm_l_1t3_state", 
      "inputs": [[375, 0, 0], [378, 0, 0]]
    }, 
    {
      "op": "Activation", 
      "name": "activation136", 
      "attrs": {"act_type": "tanh"}, 
      "inputs": [[379, 0, 0]]
    }, 
    {
      "op": "elemwise_mul", 
      "name": "lstm_l_1t3_out", 
      "inputs": [[369, 0, 0], [380, 0, 0]]
    }, 
    {
      "op": "elemwise_add", 
      "name": "lstm_l_1t3_out_plus_residual", 
      "inputs": [[381, 0, 0], [360, 0, 0]]
    }, 
    {
      "op": "FullyConnected", 
      "name": "lstm_l_2t3_i2h", 
      "attrs": {"num_hidden": "376"}, 
      "inputs": [[382, 0, 0], [99, 0, 0], [100, 0, 0]]
    }, 
    {
      "op": "ones_like", 
      "name": "ones_like216", 
      "inputs": [[309, 0, 0]]
    }, 
    {
      "op": "Dropout", 
      "name": "dropout212", 
      "attrs": {"p": "0.1"}, 
      "inputs": [[384, 0, 0]]
    }, 
    {
      "op": "where", 
      "name": "where374", 
      "inputs": [[385, 0, 0], [309, 0, 0], [293, 0, 0]]
    }, 
    {
      "op": "where", 
      "name": "where384", 
      "inputs": [[38, 40, 0], [102, 0, 0], [386, 0, 0]]
    }, 
    {
      "op": "FullyConnected", 
      "name": "lstm_l_2t3_h2h", 
      "attrs": {"num_hidden": "376"}, 
      "inputs": [[387, 0, 0], [104, 0, 0], [105, 0, 0]]
    }, 
    {
      "op": "elemwise_add", 
      "name": "_plus164", 
      "inputs": [[383, 0, 0], [388, 0, 0]]
    }, 
    {
      "op": "SliceChannel", 
      "name": "lstm_l_2t3_slice", 
      "attrs": {"num_outputs": "4"}, 
      "inputs": [[389, 0, 0]]
    }, 
    {
      "op": "Activation", 
      "name": "lstm_l_2t3_o", 
      "attrs": {"act_type": "sigmoid"}, 
      "inputs": [[390, 3, 0]]
    }, 
    {
      "op": "Activation", 
      "name": "lstm_l_2t3_f", 
      "attrs": {"act_type": "sigmoid"}, 
      "inputs": [[390, 1, 0]]
    }, 
    {
      "op": "ones_like", 
      "name": "ones_like217", 
      "inputs": [[307, 0, 0]]
    }, 
    {
      "op": "Dropout", 
      "name": "dropout213", 
      "attrs": {"p": "0.1"}, 
      "inputs": [[393, 0, 0]]
    }, 
    {
      "op": "where", 
      "name": "where375", 
      "inputs": [[394, 0, 0], [307, 0, 0], [302, 0, 0]]
    }, 
    {
      "op": "where", 
      "name": "where385", 
      "inputs": [[38, 40, 0], [111, 0, 0], [395, 0, 0]]
    }, 
    {
      "op": "elemwise_mul", 
      "name": "_mul384", 
      "inputs": [[392, 0, 0], [396, 0, 0]]
    }, 
    {
      "op": "Activation", 
      "name": "lstm_l_2t3_i", 
      "attrs": {"act_type": "sigmoid"}, 
      "inputs": [[390, 0, 0]]
    }, 
    {
      "op": "Activation", 
      "name": "lstm_l_2t3_c", 
      "attrs": {"act_type": "tanh"}, 
      "inputs": [[390, 2, 0]]
    }, 
    {
      "op": "elemwise_mul", 
      "name": "_mul385", 
      "inputs": [[398, 0, 0], [399, 0, 0]]
    }, 
    {
      "op": "elemwise_add", 
      "name": "lstm_l_2t3_state", 
      "inputs": [[397, 0, 0], [400, 0, 0]]
    }, 
    {
      "op": "Activation", 
      "name": "activation137", 
      "attrs": {"act_type": "tanh"}, 
      "inputs": [[401, 0, 0]]
    }, 
    {
      "op": "elemwise_mul", 
      "name": "lstm_l_2t3_out", 
      "inputs": [[391, 0, 0], [402, 0, 0]]
    }, 
    {
      "op": "elemwise_add", 
      "name": "lstm_l_2t3_out_plus_residual", 
      "inputs": [[403, 0, 0], [382, 0, 0]]
    }, 
    {
      "op": "FullyConnected", 
      "name": "lstm_l_3t3_i2h", 
      "attrs": {"num_hidden": "376"}, 
      "inputs": [[404, 0, 0], [121, 0, 0], [122, 0, 0]]
    }, 
    {
      "op": "ones_like", 
      "name": "ones_like218", 
      "inputs": [[331, 0, 0]]
    }, 
    {
      "op": "Dropout", 
      "name": "dropout214", 
      "attrs": {"p": "0.1"}, 
      "inputs": [[406, 0, 0]]
    }, 
    {
      "op": "where", 
      "name": "where376", 
      "inputs": [[407, 0, 0], [331, 0, 0], [315, 0, 0]]
    }, 
    {
      "op": "where", 
      "name": "where386", 
      "inputs": [[38, 40, 0], [124, 0, 0], [408, 0, 0]]
    }, 
    {
      "op": "FullyConnected", 
      "name": "lstm_l_3t3_h2h", 
      "attrs": {"num_hidden": "376"}, 
      "inputs": [[409, 0, 0], [126, 0, 0], [127, 0, 0]]
    }, 
    {
      "op": "elemwise_add", 
      "name": "_plus165", 
      "inputs": [[405, 0, 0], [410, 0, 0]]
    }, 
    {
      "op": "SliceChannel", 
      "name": "lstm_l_3t3_slice", 
      "attrs": {"num_outputs": "4"}, 
      "inputs": [[411, 0, 0]]
    }, 
    {
      "op": "Activation", 
      "name": "lstm_l_3t3_o", 
      "attrs": {"act_type": "sigmoid"}, 
      "inputs": [[412, 3, 0]]
    }, 
    {
      "op": "Activation", 
      "name": "lstm_l_3t3_f", 
      "attrs": {"act_type": "sigmoid"}, 
      "inputs": [[412, 1, 0]]
    }, 
    {
      "op": "ones_like", 
      "name": "ones_like219", 
      "inputs": [[329, 0, 0]]
    }, 
    {
      "op": "Dropout", 
      "name": "dropout215", 
      "attrs": {"p": "0.1"}, 
      "inputs": [[415, 0, 0]]
    }, 
    {
      "op": "where", 
      "name": "where377", 
      "inputs": [[416, 0, 0], [329, 0, 0], [324, 0, 0]]
    }, 
    {
      "op": "where", 
      "name": "where387", 
      "inputs": [[38, 40, 0], [133, 0, 0], [417, 0, 0]]
    }, 
    {
      "op": "elemwise_mul", 
      "name": "_mul386", 
      "inputs": [[414, 0, 0], [418, 0, 0]]
    }, 
    {
      "op": "Activation", 
      "name": "lstm_l_3t3_i", 
      "attrs": {"act_type": "sigmoid"}, 
      "inputs": [[412, 0, 0]]
    }, 
    {
      "op": "Activation", 
      "name": "lstm_l_3t3_c", 
      "attrs": {"act_type": "tanh"}, 
      "inputs": [[412, 2, 0]]
    }, 
    {
      "op": "elemwise_mul", 
      "name": "_mul387", 
      "inputs": [[420, 0, 0], [421, 0, 0]]
    }, 
    {
      "op": "elemwise_add", 
      "name": "lstm_l_3t3_state", 
      "inputs": [[419, 0, 0], [422, 0, 0]]
    }, 
    {
      "op": "Activation", 
      "name": "activation138", 
      "attrs": {"act_type": "tanh"}, 
      "inputs": [[423, 0, 0]]
    }, 
    {
      "op": "elemwise_mul", 
      "name": "lstm_l_3t3_out", 
      "inputs": [[413, 0, 0], [424, 0, 0]]
    }, 
    {
      "op": "elemwise_add", 
      "name": "lstm_l_3t3_out_plus_residual", 
      "inputs": [[425, 0, 0], [404, 0, 0]]
    }, 
    {
      "op": "FullyConnected", 
      "name": "fullyconnected54", 
      "attrs": {"num_hidden": "1"}, 
      "inputs": [[426, 0, 0], [143, 0, 0], [144, 0, 0]]
    }, 
    {
      "op": "elemwise_mul", 
      "name": "_mul391", 
      "inputs": [[427, 0, 0], [32, 0, 0]]
    }, 
    {
      "op": "where", 
      "name": "where396", 
      "inputs": [[38, 40, 0], [49, 0, 0], [428, 0, 0]]
    }, 
    {
      "op": "where", 
      "name": "where397", 
      "inputs": [[17, 40, 0], [12, 40, 0], [429, 0, 0]]
    }, 
    {
      "op": "Concat", 
      "name": "concat65", 
      "attrs": {
        "dim": "1", 
        "num_args": "16"
      }, 
      "inputs": [
        [430, 0, 0], 
        [336, 0, 0], 
        [242, 0, 0], 
        [148, 0, 0], 
        [12, 36, 0], 
        [12, 35, 0], 
        [12, 34, 0], 
        [12, 30, 0], 
        [12, 29, 0], 
        [12, 28, 0], 
        [12, 18, 0], 
        [12, 17, 0], 
        [12, 16, 0], 
        [12, 6, 0], 
        [12, 5, 0], 
        [12, 4, 0]
      ]
    }, 
    {
      "op": "broadcast_div", 
      "name": "broadcast_div30", 
      "inputs": [[431, 0, 0], [32, 0, 0]]
    }, 
    {
      "op": "Concat", 
      "name": "concat66", 
      "attrs": {
        "dim": "1", 
        "num_args": "3"
      }, 
      "inputs": [[41, 41, 0], [34, 0, 0], [432, 0, 0]]
    }, 
    {
      "op": "FullyConnected", 
      "name": "lstm_l_0t4_i2h", 
      "attrs": {"num_hidden": "376"}, 
      "inputs": [[433, 0, 0], [56, 0, 0], [57, 0, 0]]
    }, 
    {
      "op": "ones_like", 
      "name": "ones_like220", 
      "inputs": [[360, 0, 0]]
    }, 
    {
      "op": "Dropout", 
      "name": "dropout216", 
      "attrs": {"p": "0.1"}, 
      "inputs": [[435, 0, 0]]
    }, 
    {
      "op": "where", 
      "name": "where388", 
      "inputs": [[436, 0, 0], [360, 0, 0], [344, 0, 0]]
    }, 
    {
      "op": "where", 
      "name": "where398", 
      "inputs": [[38, 41, 0], [59, 0, 0], [437, 0, 0]]
    }, 
    {
      "op": "FullyConnected", 
      "name": "lstm_l_0t4_h2h", 
      "attrs": {"num_hidden": "376"}, 
      "inputs": [[438, 0, 0], [61, 0, 0], [62, 0, 0]]
    }, 
    {
      "op": "elemwise_add", 
      "name": "_plus168", 
      "inputs": [[434, 0, 0], [439, 0, 0]]
    }, 
    {
      "op": "SliceChannel", 
      "name": "lstm_l_0t4_slice", 
      "attrs": {"num_outputs": "4"}, 
      "inputs": [[440, 0, 0]]
    }, 
    {
      "op": "Activation", 
      "name": "lstm_l_0t4_o", 
      "attrs": {"act_type": "sigmoid"}, 
      "inputs": [[441, 3, 0]]
    }, 
    {
      "op": "Activation", 
      "name": "lstm_l_0t4_f", 
      "attrs": {"act_type": "sigmoid"}, 
      "inputs": [[441, 1, 0]]
    }, 
    {
      "op": "ones_like", 
      "name": "ones_like221", 
      "inputs": [[358, 0, 0]]
    }, 
    {
      "op": "Dropout", 
      "name": "dropout217", 
      "attrs": {"p": "0.1"}, 
      "inputs": [[444, 0, 0]]
    }, 
    {
      "op": "where", 
      "name": "where389", 
      "inputs": [[445, 0, 0], [358, 0, 0], [353, 0, 0]]
    }, 
    {
      "op": "where", 
      "name": "where399", 
      "inputs": [[38, 41, 0], [68, 0, 0], [446, 0, 0]]
    }, 
    {
      "op": "elemwise_mul", 
      "name": "_mul394", 
      "inputs": [[443, 0, 0], [447, 0, 0]]
    }, 
    {
      "op": "Activation", 
      "name": "lstm_l_0t4_i", 
      "attrs": {"act_type": "sigmoid"}, 
      "inputs": [[441, 0, 0]]
    }, 
    {
      "op": "Activation", 
      "name": "lstm_l_0t4_c", 
      "attrs": {"act_type": "tanh"}, 
      "inputs": [[441, 2, 0]]
    }, 
    {
      "op": "elemwise_mul", 
      "name": "_mul395", 
      "inputs": [[449, 0, 0], [450, 0, 0]]
    }, 
    {
      "op": "elemwise_add", 
      "name": "lstm_l_0t4_state", 
      "inputs": [[448, 0, 0], [451, 0, 0]]
    }, 
    {
      "op": "Activation", 
      "name": "activation140", 
      "attrs": {"act_type": "tanh"}, 
      "inputs": [[452, 0, 0]]
    }, 
    {
      "op": "elemwise_mul", 
      "name": "lstm_l_0t4_out", 
      "inputs": [[442, 0, 0], [453, 0, 0]]
    }, 
    {
      "op": "FullyConnected", 
      "name": "lstm_l_1t4_i2h", 
      "attrs": {"num_hidden": "376"}, 
      "inputs": [[454, 0, 0], [77, 0, 0], [78, 0, 0]]
    }, 
    {
      "op": "ones_like", 
      "name": "ones_like222", 
      "inputs": [[381, 0, 0]]
    }, 
    {
      "op": "Dropout", 
      "name": "dropout218", 
      "attrs": {"p": "0.1"}, 
      "inputs": [[456, 0, 0]]
    }, 
    {
      "op": "where", 
      "name": "where390", 
      "inputs": [[457, 0, 0], [381, 0, 0], [365, 0, 0]]
    }, 
    {
      "op": "where", 
      "name": "where400", 
      "inputs": [[38, 41, 0], [80, 0, 0], [458, 0, 0]]
    }, 
    {
      "op": "FullyConnected", 
      "name": "lstm_l_1t4_h2h", 
      "attrs": {"num_hidden": "376"}, 
      "inputs": [[459, 0, 0], [82, 0, 0], [83, 0, 0]]
    }, 
    {
      "op": "elemwise_add", 
      "name": "_plus169", 
      "inputs": [[455, 0, 0], [460, 0, 0]]
    }, 
    {
      "op": "SliceChannel", 
      "name": "lstm_l_1t4_slice", 
      "attrs": {"num_outputs": "4"}, 
      "inputs": [[461, 0, 0]]
    }, 
    {
      "op": "Activation", 
      "name": "lstm_l_1t4_o", 
      "attrs": {"act_type": "sigmoid"}, 
      "inputs": [[462, 3, 0]]
    }, 
    {
      "op": "Activation", 
      "name": "lstm_l_1t4_f", 
      "attrs": {"act_type": "sigmoid"}, 
      "inputs": [[462, 1, 0]]
    }, 
    {
      "op": "ones_like", 
      "name": "ones_like223", 
      "inputs": [[379, 0, 0]]
    }, 
    {
      "op": "Dropout", 
      "name": "dropout219", 
      "attrs": {"p": "0.1"}, 
      "inputs": [[465, 0, 0]]
    }, 
    {
      "op": "where", 
      "name": "where391", 
      "inputs": [[466, 0, 0], [379, 0, 0], [374, 0, 0]]
    }, 
    {
      "op": "where", 
      "name": "where401", 
      "inputs": [[38, 41, 0], [89, 0, 0], [467, 0, 0]]
    }, 
    {
      "op": "elemwise_mul", 
      "name": "_mul396", 
      "inputs": [[464, 0, 0], [468, 0, 0]]
    }, 
    {
      "op": "Activation", 
      "name": "lstm_l_1t4_i", 
      "attrs": {"act_type": "sigmoid"}, 
      "inputs": [[462, 0, 0]]
    }, 
    {
      "op": "Activation", 
      "name": "lstm_l_1t4_c", 
      "attrs": {"act_type": "tanh"}, 
      "inputs": [[462, 2, 0]]
    }, 
    {
      "op": "elemwise_mul", 
      "name": "_mul397", 
      "inputs": [[470, 0, 0], [471, 0, 0]]
    }, 
    {
      "op": "elemwise_add", 
      "name": "lstm_l_1t4_state", 
      "inputs": [[469, 0, 0], [472, 0, 0]]
    }, 
    {
      "op": "Activation", 
      "name": "activation141", 
      "attrs": {"act_type": "tanh"}, 
      "inputs": [[473, 0, 0]]
    }, 
    {
      "op": "elemwise_mul", 
      "name": "lstm_l_1t4_out", 
      "inputs": [[463, 0, 0], [474, 0, 0]]
    }, 
    {
      "op": "elemwise_add", 
      "name": "lstm_l_1t4_out_plus_residual", 
      "inputs": [[475, 0, 0], [454, 0, 0]]
    }, 
    {
      "op": "FullyConnected", 
      "name": "lstm_l_2t4_i2h", 
      "attrs": {"num_hidden": "376"}, 
      "inputs": [[476, 0, 0], [99, 0, 0], [100, 0, 0]]
    }, 
    {
      "op": "ones_like", 
      "name": "ones_like224", 
      "inputs": [[403, 0, 0]]
    }, 
    {
      "op": "Dropout", 
      "name": "dropout220", 
      "attrs": {"p": "0.1"}, 
      "inputs": [[478, 0, 0]]
    }, 
    {
      "op": "where", 
      "name": "where392", 
      "inputs": [[479, 0, 0], [403, 0, 0], [387, 0, 0]]
    }, 
    {
      "op": "where", 
      "name": "where402", 
      "inputs": [[38, 41, 0], [102, 0, 0], [480, 0, 0]]
    }, 
    {
      "op": "FullyConnected", 
      "name": "lstm_l_2t4_h2h", 
      "attrs": {"num_hidden": "376"}, 
      "inputs": [[481, 0, 0], [104, 0, 0], [105, 0, 0]]
    }, 
    {
      "op": "elemwise_add", 
      "name": "_plus170", 
      "inputs": [[477, 0, 0], [482, 0, 0]]
    }, 
    {
      "op": "SliceChannel", 
      "name": "lstm_l_2t4_slice", 
      "attrs": {"num_outputs": "4"}, 
      "inputs": [[483, 0, 0]]
    }, 
    {
      "op": "Activation", 
      "name": "lstm_l_2t4_o", 
      "attrs": {"act_type": "sigmoid"}, 
      "inputs": [[484, 3, 0]]
    }, 
    {
      "op": "Activation", 
      "name": "lstm_l_2t4_f", 
      "attrs": {"act_type": "sigmoid"}, 
      "inputs": [[484, 1, 0]]
    }, 
    {
      "op": "ones_like", 
      "name": "ones_like225", 
      "inputs": [[401, 0, 0]]
    }, 
    {
      "op": "Dropout", 
      "name": "dropout221", 
      "attrs": {"p": "0.1"}, 
      "inputs": [[487, 0, 0]]
    }, 
    {
      "op": "where", 
      "name": "where393", 
      "inputs": [[488, 0, 0], [401, 0, 0], [396, 0, 0]]
    }, 
    {
      "op": "where", 
      "name": "where403", 
      "inputs": [[38, 41, 0], [111, 0, 0], [489, 0, 0]]
    }, 
    {
      "op": "elemwise_mul", 
      "name": "_mul398", 
      "inputs": [[486, 0, 0], [490, 0, 0]]
    }, 
    {
      "op": "Activation", 
      "name": "lstm_l_2t4_i", 
      "attrs": {"act_type": "sigmoid"}, 
      "inputs": [[484, 0, 0]]
    }, 
    {
      "op": "Activation", 
      "name": "lstm_l_2t4_c", 
      "attrs": {"act_type": "tanh"}, 
      "inputs": [[484, 2, 0]]
    }, 
    {
      "op": "elemwise_mul", 
      "name": "_mul399", 
      "inputs": [[492, 0, 0], [493, 0, 0]]
    }, 
    {
      "op": "elemwise_add", 
      "name": "lstm_l_2t4_state", 
      "inputs": [[491, 0, 0], [494, 0, 0]]
    }, 
    {
      "op": "Activation", 
      "name": "activation142", 
      "attrs": {"act_type": "tanh"}, 
      "inputs": [[495, 0, 0]]
    }, 
    {
      "op": "elemwise_mul", 
      "name": "lstm_l_2t4_out", 
      "inputs": [[485, 0, 0], [496, 0, 0]]
    }, 
    {
      "op": "elemwise_add", 
      "name": "lstm_l_2t4_out_plus_residual", 
      "inputs": [[497, 0, 0], [476, 0, 0]]
    }, 
    {
      "op": "FullyConnected", 
      "name": "lstm_l_3t4_i2h", 
      "attrs": {"num_hidden": "376"}, 
      "inputs": [[498, 0, 0], [121, 0, 0], [122, 0, 0]]
    }, 
    {
      "op": "ones_like", 
      "name": "ones_like226", 
      "inputs": [[425, 0, 0]]
    }, 
    {
      "op": "Dropout", 
      "name": "dropout222", 
      "attrs": {"p": "0.1"}, 
      "inputs": [[500, 0, 0]]
    }, 
    {
      "op": "where", 
      "name": "where394", 
      "inputs": [[501, 0, 0], [425, 0, 0], [409, 0, 0]]
    }, 
    {
      "op": "where", 
      "name": "where404", 
      "inputs": [[38, 41, 0], [124, 0, 0], [502, 0, 0]]
    }, 
    {
      "op": "FullyConnected", 
      "name": "lstm_l_3t4_h2h", 
      "attrs": {"num_hidden": "376"}, 
      "inputs": [[503, 0, 0], [126, 0, 0], [127, 0, 0]]
    }, 
    {
      "op": "elemwise_add", 
      "name": "_plus171", 
      "inputs": [[499, 0, 0], [504, 0, 0]]
    }, 
    {
      "op": "SliceChannel", 
      "name": "lstm_l_3t4_slice", 
      "attrs": {"num_outputs": "4"}, 
      "inputs": [[505, 0, 0]]
    }, 
    {
      "op": "Activation", 
      "name": "lstm_l_3t4_o", 
      "attrs": {"act_type": "sigmoid"}, 
      "inputs": [[506, 3, 0]]
    }, 
    {
      "op": "Activation", 
      "name": "lstm_l_3t4_f", 
      "attrs": {"act_type": "sigmoid"}, 
      "inputs": [[506, 1, 0]]
    }, 
    {
      "op": "ones_like", 
      "name": "ones_like227", 
      "inputs": [[423, 0, 0]]
    }, 
    {
      "op": "Dropout", 
      "name": "dropout223", 
      "attrs": {"p": "0.1"}, 
      "inputs": [[509, 0, 0]]
    }, 
    {
      "op": "where", 
      "name": "where395", 
      "inputs": [[510, 0, 0], [423, 0, 0], [418, 0, 0]]
    }, 
    {
      "op": "where", 
      "name": "where405", 
      "inputs": [[38, 41, 0], [133, 0, 0], [511, 0, 0]]
    }, 
    {
      "op": "elemwise_mul", 
      "name": "_mul400", 
      "inputs": [[508, 0, 0], [512, 0, 0]]
    }, 
    {
      "op": "Activation", 
      "name": "lstm_l_3t4_i", 
      "attrs": {"act_type": "sigmoid"}, 
      "inputs": [[506, 0, 0]]
    }, 
    {
      "op": "Activation", 
      "name": "lstm_l_3t4_c", 
      "attrs": {"act_type": "tanh"}, 
      "inputs": [[506, 2, 0]]
    }, 
    {
      "op": "elemwise_mul", 
      "name": "_mul401", 
      "inputs": [[514, 0, 0], [515, 0, 0]]
    }, 
    {
      "op": "elemwise_add", 
      "name": "lstm_l_3t4_state", 
      "inputs": [[513, 0, 0], [516, 0, 0]]
    }, 
    {
      "op": "Activation", 
      "name": "activation143", 
      "attrs": {"act_type": "tanh"}, 
      "inputs": [[517, 0, 0]]
    }, 
    {
      "op": "elemwise_mul", 
      "name": "lstm_l_3t4_out", 
      "inputs": [[507, 0, 0], [518, 0, 0]]
    }, 
    {
      "op": "elemwise_add", 
      "name": "lstm_l_3t4_out_plus_residual", 
      "inputs": [[519, 0, 0], [498, 0, 0]]
    }, 
    {
      "op": "FullyConnected", 
      "name": "fullyconnected56", 
      "attrs": {"num_hidden": "1"}, 
      "inputs": [[520, 0, 0], [143, 0, 0], [144, 0, 0]]
    }, 
    {
      "op": "elemwise_mul", 
      "name": "_mul405", 
      "inputs": [[521, 0, 0], [32, 0, 0]]
    }, 
    {
      "op": "where", 
      "name": "where414", 
      "inputs": [[38, 41, 0], [48, 0, 0], [522, 0, 0]]
    }, 
    {
      "op": "where", 
      "name": "where415", 
      "inputs": [[17, 41, 0], [12, 41, 0], [523, 0, 0]]
    }, 
    {
      "op": "Concat", 
      "name": "concat67", 
      "attrs": {
        "dim": "1", 
        "num_args": "16"
      }, 
      "inputs": [
        [524, 0, 0], 
        [430, 0, 0], 
        [336, 0, 0], 
        [242, 0, 0], 
        [148, 0, 0], 
        [12, 36, 0], 
        [12, 35, 0], 
        [12, 31, 0], 
        [12, 30, 0], 
        [12, 29, 0], 
        [12, 19, 0], 
        [12, 18, 0], 
        [12, 17, 0], 
        [12, 7, 0], 
        [12, 6, 0], 
        [12, 5, 0]
      ]
    }, 
    {
      "op": "broadcast_div", 
      "name": "broadcast_div31", 
      "inputs": [[525, 0, 0], [32, 0, 0]]
    }, 
    {
      "op": "Concat", 
      "name": "concat68", 
      "attrs": {
        "dim": "1", 
        "num_args": "3"
      }, 
      "inputs": [[41, 42, 0], [34, 0, 0], [526, 0, 0]]
    }, 
    {
      "op": "FullyConnected", 
      "name": "lstm_l_0t5_i2h", 
      "attrs": {"num_hidden": "376"}, 
      "inputs": [[527, 0, 0], [56, 0, 0], [57, 0, 0]]
    }, 
    {
      "op": "ones_like", 
      "name": "ones_like228", 
      "inputs": [[454, 0, 0]]
    }, 
    {
      "op": "Dropout", 
      "name": "dropout224", 
      "attrs": {"p": "0.1"}, 
      "inputs": [[529, 0, 0]]
    }, 
    {
      "op": "where", 
      "name": "where406", 
      "inputs": [[530, 0, 0], [454, 0, 0], [438, 0, 0]]
    }, 
    {
      "op": "where", 
      "name": "where416", 
      "inputs": [[38, 42, 0], [59, 0, 0], [531, 0, 0]]
    }, 
    {
      "op": "FullyConnected", 
      "name": "lstm_l_0t5_h2h", 
      "attrs": {"num_hidden": "376"}, 
      "inputs": [[532, 0, 0], [61, 0, 0], [62, 0, 0]]
    }, 
    {
      "op": "elemwise_add", 
      "name": "_plus174", 
      "inputs": [[528, 0, 0], [533, 0, 0]]
    }, 
    {
      "op": "SliceChannel", 
      "name": "lstm_l_0t5_slice", 
      "attrs": {"num_outputs": "4"}, 
      "inputs": [[534, 0, 0]]
    }, 
    {
      "op": "Activation", 
      "name": "lstm_l_0t5_o", 
      "attrs": {"act_type": "sigmoid"}, 
      "inputs": [[535, 3, 0]]
    }, 
    {
      "op": "Activation", 
      "name": "lstm_l_0t5_f", 
      "attrs": {"act_type": "sigmoid"}, 
      "inputs": [[535, 1, 0]]
    }, 
    {
      "op": "ones_like", 
      "name": "ones_like229", 
      "inputs": [[452, 0, 0]]
    }, 
    {
      "op": "Dropout", 
      "name": "dropout225", 
      "attrs": {"p": "0.1"}, 
      "inputs": [[538, 0, 0]]
    }, 
    {
      "op": "where", 
      "name": "where407", 
      "inputs": [[539, 0, 0], [452, 0, 0], [447, 0, 0]]
    }, 
    {
      "op": "where", 
      "name": "where417", 
      "inputs": [[38, 42, 0], [68, 0, 0], [540, 0, 0]]
    }, 
    {
      "op": "elemwise_mul", 
      "name": "_mul408", 
      "inputs": [[537, 0, 0], [541, 0, 0]]
    }, 
    {
      "op": "Activation", 
      "name": "lstm_l_0t5_i", 
      "attrs": {"act_type": "sigmoid"}, 
      "inputs": [[535, 0, 0]]
    }, 
    {
      "op": "Activation", 
      "name": "lstm_l_0t5_c", 
      "attrs": {"act_type": "tanh"}, 
      "inputs": [[535, 2, 0]]
    }, 
    {
      "op": "elemwise_mul", 
      "name": "_mul409", 
      "inputs": [[543, 0, 0], [544, 0, 0]]
    }, 
    {
      "op": "elemwise_add", 
      "name": "lstm_l_0t5_state", 
      "inputs": [[542, 0, 0], [545, 0, 0]]
    }, 
    {
      "op": "Activation", 
      "name": "activation145", 
      "attrs": {"act_type": "tanh"}, 
      "inputs": [[546, 0, 0]]
    }, 
    {
      "op": "elemwise_mul", 
      "name": "lstm_l_0t5_out", 
      "inputs": [[536, 0, 0], [547, 0, 0]]
    }, 
    {
      "op": "FullyConnected", 
      "name": "lstm_l_1t5_i2h", 
      "attrs": {"num_hidden": "376"}, 
      "inputs": [[548, 0, 0], [77, 0, 0], [78, 0, 0]]
    }, 
    {
      "op": "ones_like", 
      "name": "ones_like230", 
      "inputs": [[475, 0, 0]]
    }, 
    {
      "op": "Dropout", 
      "name": "dropout226", 
      "attrs": {"p": "0.1"}, 
      "inputs": [[550, 0, 0]]
    }, 
    {
      "op": "where", 
      "name": "where408", 
      "inputs": [[551, 0, 0], [475, 0, 0], [459, 0, 0]]
    }, 
    {
      "op": "where", 
      "name": "where418", 
      "inputs": [[38, 42, 0], [80, 0, 0], [552, 0, 0]]
    }, 
    {
      "op": "FullyConnected", 
      "name": "lstm_l_1t5_h2h", 
      "attrs": {"num_hidden": "376"}, 
      "inputs": [[553, 0, 0], [82, 0, 0], [83, 0, 0]]
    }, 
    {
      "op": "elemwise_add", 
      "name": "_plus175", 
      "inputs": [[549, 0, 0], [554, 0, 0]]
    }, 
    {
      "op": "SliceChannel", 
      "name": "lstm_l_1t5_slice", 
      "attrs": {"num_outputs": "4"}, 
      "inputs": [[555, 0, 0]]
    }, 
    {
      "op": "Activation", 
      "name": "lstm_l_1t5_o", 
      "attrs": {"act_type": "sigmoid"}, 
      "inputs": [[556, 3, 0]]
    }, 
    {
      "op": "Activation", 
      "name": "lstm_l_1t5_f", 
      "attrs": {"act_type": "sigmoid"}, 
      "inputs": [[556, 1, 0]]
    }, 
    {
      "op": "ones_like", 
      "name": "ones_like231", 
      "inputs": [[473, 0, 0]]
    }, 
    {
      "op": "Dropout", 
      "name": "dropout227", 
      "attrs": {"p": "0.1"}, 
      "inputs": [[559, 0, 0]]
    }, 
    {
      "op": "where", 
      "name": "where409", 
      "inputs": [[560, 0, 0], [473, 0, 0], [468, 0, 0]]
    }, 
    {
      "op": "where", 
      "name": "where419", 
      "inputs": [[38, 42, 0], [89, 0, 0], [561, 0, 0]]
    }, 
    {
      "op": "elemwise_mul", 
      "name": "_mul410", 
      "inputs": [[558, 0, 0], [562, 0, 0]]
    }, 
    {
      "op": "Activation", 
      "name": "lstm_l_1t5_i", 
      "attrs": {"act_type": "sigmoid"}, 
      "inputs": [[556, 0, 0]]
    }, 
    {
      "op": "Activation", 
      "name": "lstm_l_1t5_c", 
      "attrs": {"act_type": "tanh"}, 
      "inputs": [[556, 2, 0]]
    }, 
    {
      "op": "elemwise_mul", 
      "name": "_mul411", 
      "inputs": [[564, 0, 0], [565, 0, 0]]
    }, 
    {
      "op": "elemwise_add", 
      "name": "lstm_l_1t5_state", 
      "inputs": [[563, 0, 0], [566, 0, 0]]
    }, 
    {
      "op": "Activation", 
      "name": "activation146", 
      "attrs": {"act_type": "tanh"}, 
      "inputs": [[567, 0, 0]]
    }, 
    {
      "op": "elemwise_mul", 
      "name": "lstm_l_1t5_out", 
      "inputs": [[557, 0, 0], [568, 0, 0]]
    }, 
    {
      "op": "elemwise_add", 
      "name": "lstm_l_1t5_out_plus_residual", 
      "inputs": [[569, 0, 0], [548, 0, 0]]
    }, 
    {
      "op": "FullyConnected", 
      "name": "lstm_l_2t5_i2h", 
      "attrs": {"num_hidden": "376"}, 
      "inputs": [[570, 0, 0], [99, 0, 0], [100, 0, 0]]
    }, 
    {
      "op": "ones_like", 
      "name": "ones_like232", 
      "inputs": [[497, 0, 0]]
    }, 
    {
      "op": "Dropout", 
      "name": "dropout228", 
      "attrs": {"p": "0.1"}, 
      "inputs": [[572, 0, 0]]
    }, 
    {
      "op": "where", 
      "name": "where410", 
      "inputs": [[573, 0, 0], [497, 0, 0], [481, 0, 0]]
    }, 
    {
      "op": "where", 
      "name": "where420", 
      "inputs": [[38, 42, 0], [102, 0, 0], [574, 0, 0]]
    }, 
    {
      "op": "FullyConnected", 
      "name": "lstm_l_2t5_h2h", 
      "attrs": {"num_hidden": "376"}, 
      "inputs": [[575, 0, 0], [104, 0, 0], [105, 0, 0]]
    }, 
    {
      "op": "elemwise_add", 
      "name": "_plus176", 
      "inputs": [[571, 0, 0], [576, 0, 0]]
    }, 
    {
      "op": "SliceChannel", 
      "name": "lstm_l_2t5_slice", 
      "attrs": {"num_outputs": "4"}, 
      "inputs": [[577, 0, 0]]
    }, 
    {
      "op": "Activation", 
      "name": "lstm_l_2t5_o", 
      "attrs": {"act_type": "sigmoid"}, 
      "inputs": [[578, 3, 0]]
    }, 
    {
      "op": "Activation", 
      "name": "lstm_l_2t5_f", 
      "attrs": {"act_type": "sigmoid"}, 
      "inputs": [[578, 1, 0]]
    }, 
    {
      "op": "ones_like", 
      "name": "ones_like233", 
      "inputs": [[495, 0, 0]]
    }, 
    {
      "op": "Dropout", 
      "name": "dropout229", 
      "attrs": {"p": "0.1"}, 
      "inputs": [[581, 0, 0]]
    }, 
    {
      "op": "where", 
      "name": "where411", 
      "inputs": [[582, 0, 0], [495, 0, 0], [490, 0, 0]]
    }, 
    {
      "op": "where", 
      "name": "where421", 
      "inputs": [[38, 42, 0], [111, 0, 0], [583, 0, 0]]
    }, 
    {
      "op": "elemwise_mul", 
      "name": "_mul412", 
      "inputs": [[580, 0, 0], [584, 0, 0]]
    }, 
    {
      "op": "Activation", 
      "name": "lstm_l_2t5_i", 
      "attrs": {"act_type": "sigmoid"}, 
      "inputs": [[578, 0, 0]]
    }, 
    {
      "op": "Activation", 
      "name": "lstm_l_2t5_c", 
      "attrs": {"act_type": "tanh"}, 
      "inputs": [[578, 2, 0]]
    }, 
    {
      "op": "elemwise_mul", 
      "name": "_mul413", 
      "inputs": [[586, 0, 0], [587, 0, 0]]
    }, 
    {
      "op": "elemwise_add", 
      "name": "lstm_l_2t5_state", 
      "inputs": [[585, 0, 0], [588, 0, 0]]
    }, 
    {
      "op": "Activation", 
      "name": "activation147", 
      "attrs": {"act_type": "tanh"}, 
      "inputs": [[589, 0, 0]]
    }, 
    {
      "op": "elemwise_mul", 
      "name": "lstm_l_2t5_out", 
      "inputs": [[579, 0, 0], [590, 0, 0]]
    }, 
    {
      "op": "elemwise_add", 
      "name": "lstm_l_2t5_out_plus_residual", 
      "inputs": [[591, 0, 0], [570, 0, 0]]
    }, 
    {
      "op": "FullyConnected", 
      "name": "lstm_l_3t5_i2h", 
      "attrs": {"num_hidden": "376"}, 
      "inputs": [[592, 0, 0], [121, 0, 0], [122, 0, 0]]
    }, 
    {
      "op": "ones_like", 
      "name": "ones_like234", 
      "inputs": [[519, 0, 0]]
    }, 
    {
      "op": "Dropout", 
      "name": "dropout230", 
      "attrs": {"p": "0.1"}, 
      "inputs": [[594, 0, 0]]
    }, 
    {
      "op": "where", 
      "name": "where412", 
      "inputs": [[595, 0, 0], [519, 0, 0], [503, 0, 0]]
    }, 
    {
      "op": "where", 
      "name": "where422", 
      "inputs": [[38, 42, 0], [124, 0, 0], [596, 0, 0]]
    }, 
    {
      "op": "FullyConnected", 
      "name": "lstm_l_3t5_h2h", 
      "attrs": {"num_hidden": "376"}, 
      "inputs": [[597, 0, 0], [126, 0, 0], [127, 0, 0]]
    }, 
    {
      "op": "elemwise_add", 
      "name": "_plus177", 
      "inputs": [[593, 0, 0], [598, 0, 0]]
    }, 
    {
      "op": "SliceChannel", 
      "name": "lstm_l_3t5_slice", 
      "attrs": {"num_outputs": "4"}, 
      "inputs": [[599, 0, 0]]
    }, 
    {
      "op": "Activation", 
      "name": "lstm_l_3t5_o", 
      "attrs": {"act_type": "sigmoid"}, 
      "inputs": [[600, 3, 0]]
    }, 
    {
      "op": "Activation", 
      "name": "lstm_l_3t5_f", 
      "attrs": {"act_type": "sigmoid"}, 
      "inputs": [[600, 1, 0]]
    }, 
    {
      "op": "ones_like", 
      "name": "ones_like235", 
      "inputs": [[517, 0, 0]]
    }, 
    {
      "op": "Dropout", 
      "name": "dropout231", 
      "attrs": {"p": "0.1"}, 
      "inputs": [[603, 0, 0]]
    }, 
    {
      "op": "where", 
      "name": "where413", 
      "inputs": [[604, 0, 0], [517, 0, 0], [512, 0, 0]]
    }, 
    {
      "op": "where", 
      "name": "where423", 
      "inputs": [[38, 42, 0], [133, 0, 0], [605, 0, 0]]
    }, 
    {
      "op": "elemwise_mul", 
      "name": "_mul414", 
      "inputs": [[602, 0, 0], [606, 0, 0]]
    }, 
    {
      "op": "Activation", 
      "name": "lstm_l_3t5_i", 
      "attrs": {"act_type": "sigmoid"}, 
      "inputs": [[600, 0, 0]]
    }, 
    {
      "op": "Activation", 
      "name": "lstm_l_3t5_c", 
      "attrs": {"act_type": "tanh"}, 
      "inputs": [[600, 2, 0]]
    }, 
    {
      "op": "elemwise_mul", 
      "name": "_mul415", 
      "inputs": [[608, 0, 0], [609, 0, 0]]
    }, 
    {
      "op": "elemwise_add", 
      "name": "lstm_l_3t5_state", 
      "inputs": [[607, 0, 0], [610, 0, 0]]
    }, 
    {
      "op": "Activation", 
      "name": "activation148", 
      "attrs": {"act_type": "tanh"}, 
      "inputs": [[611, 0, 0]]
    }, 
    {
      "op": "elemwise_mul", 
      "name": "lstm_l_3t5_out", 
      "inputs": [[601, 0, 0], [612, 0, 0]]
    }, 
    {
      "op": "elemwise_add", 
      "name": "lstm_l_3t5_out_plus_residual", 
      "inputs": [[613, 0, 0], [592, 0, 0]]
    }, 
    {
      "op": "FullyConnected", 
      "name": "fullyconnected58", 
      "attrs": {"num_hidden": "1"}, 
      "inputs": [[614, 0, 0], [143, 0, 0], [144, 0, 0]]
    }, 
    {
      "op": "elemwise_mul", 
      "name": "_mul419", 
      "inputs": [[615, 0, 0], [32, 0, 0]]
    }, 
    {
      "op": "where", 
      "name": "where432", 
      "inputs": [[38, 42, 0], [47, 0, 0], [616, 0, 0]]
    }, 
    {
      "op": "where", 
      "name": "where433", 
      "inputs": [[17, 42, 0], [12, 42, 0], [617, 0, 0]]
    }, 
    {
      "op": "Concat", 
      "name": "concat69", 
      "attrs": {
        "dim": "1", 
        "num_args": "16"
      }, 
      "inputs": [
        [618, 0, 0], 
        [524, 0, 0], 
        [430, 0, 0], 
        [336, 0, 0], 
        [242, 0, 0], 
        [148, 0, 0], 
        [12, 36, 0], 
        [12, 32, 0], 
        [12, 31, 0], 
        [12, 30, 0], 
        [12, 20, 0], 
        [12, 19, 0], 
        [12, 18, 0], 
        [12, 8, 0], 
        [12, 7, 0], 
        [12, 6, 0]
      ]
    }, 
    {
      "op": "broadcast_div", 
      "name": "broadcast_div32", 
      "inputs": [[619, 0, 0], [32, 0, 0]]
    }, 
    {
      "op": "Concat", 
      "name": "concat70", 
      "attrs": {
        "dim": "1", 
        "num_args": "3"
      }, 
      "inputs": [[41, 43, 0], [34, 0, 0], [620, 0, 0]]
    }, 
    {
      "op": "FullyConnected", 
      "name": "lstm_l_0t6_i2h", 
      "attrs": {"num_hidden": "376"}, 
      "inputs": [[621, 0, 0], [56, 0, 0], [57, 0, 0]]
    }, 
    {
      "op": "ones_like", 
      "name": "ones_like236", 
      "inputs": [[548, 0, 0]]
    }, 
    {
      "op": "Dropout", 
      "name": "dropout232", 
      "attrs": {"p": "0.1"}, 
      "inputs": [[623, 0, 0]]
    }, 
    {
      "op": "where", 
      "name": "where424", 
      "inputs": [[624, 0, 0], [548, 0, 0], [532, 0, 0]]
    }, 
    {
      "op": "where", 
      "name": "where434", 
      "inputs": [[38, 43, 0], [59, 0, 0], [625, 0, 0]]
    }, 
    {
      "op": "FullyConnected", 
      "name": "lstm_l_0t6_h2h", 
      "attrs": {"num_hidden": "376"}, 
      "inputs": [[626, 0, 0], [61, 0, 0], [62, 0, 0]]
    }, 
    {
      "op": "elemwise_add", 
      "name": "_plus180", 
      "inputs": [[622, 0, 0], [627, 0, 0]]
    }, 
    {
      "op": "SliceChannel", 
      "name": "lstm_l_0t6_slice", 
      "attrs": {"num_outputs": "4"}, 
      "inputs": [[628, 0, 0]]
    }, 
    {
      "op": "Activation", 
      "name": "lstm_l_0t6_o", 
      "attrs": {"act_type": "sigmoid"}, 
      "inputs": [[629, 3, 0]]
    }, 
    {
      "op": "Activation", 
      "name": "lstm_l_0t6_f", 
      "attrs": {"act_type": "sigmoid"}, 
      "inputs": [[629, 1, 0]]
    }, 
    {
      "op": "ones_like", 
      "name": "ones_like237", 
      "inputs": [[546, 0, 0]]
    }, 
    {
      "op": "Dropout", 
      "name": "dropout233", 
      "attrs": {"p": "0.1"}, 
      "inputs": [[632, 0, 0]]
    }, 
    {
      "op": "where", 
      "name": "where425", 
      "inputs": [[633, 0, 0], [546, 0, 0], [541, 0, 0]]
    }, 
    {
      "op": "where", 
      "name": "where435", 
      "inputs": [[38, 43, 0], [68, 0, 0], [634, 0, 0]]
    }, 
    {
      "op": "elemwise_mul", 
      "name": "_mul422", 
      "inputs": [[631, 0, 0], [635, 0, 0]]
    }, 
    {
      "op": "Activation", 
      "name": "lstm_l_0t6_i", 
      "attrs": {"act_type": "sigmoid"}, 
      "inputs": [[629, 0, 0]]
    }, 
    {
      "op": "Activation", 
      "name": "lstm_l_0t6_c", 
      "attrs": {"act_type": "tanh"}, 
      "inputs": [[629, 2, 0]]
    }, 
    {
      "op": "elemwise_mul", 
      "name": "_mul423", 
      "inputs": [[637, 0, 0], [638, 0, 0]]
    }, 
    {
      "op": "elemwise_add", 
      "name": "lstm_l_0t6_state", 
      "inputs": [[636, 0, 0], [639, 0, 0]]
    }, 
    {
      "op": "Activation", 
      "name": "activation150", 
      "attrs": {"act_type": "tanh"}, 
      "inputs": [[640, 0, 0]]
    }, 
    {
      "op": "elemwise_mul", 
      "name": "lstm_l_0t6_out", 
      "inputs": [[630, 0, 0], [641, 0, 0]]
    }, 
    {
      "op": "FullyConnected", 
      "name": "lstm_l_1t6_i2h", 
      "attrs": {"num_hidden": "376"}, 
      "inputs": [[642, 0, 0], [77, 0, 0], [78, 0, 0]]
    }, 
    {
      "op": "ones_like", 
      "name": "ones_like238", 
      "inputs": [[569, 0, 0]]
    }, 
    {
      "op": "Dropout", 
      "name": "dropout234", 
      "attrs": {"p": "0.1"}, 
      "inputs": [[644, 0, 0]]
    }, 
    {
      "op": "where", 
      "name": "where426", 
      "inputs": [[645, 0, 0], [569, 0, 0], [553, 0, 0]]
    }, 
    {
      "op": "where", 
      "name": "where436", 
      "inputs": [[38, 43, 0], [80, 0, 0], [646, 0, 0]]
    }, 
    {
      "op": "FullyConnected", 
      "name": "lstm_l_1t6_h2h", 
      "attrs": {"num_hidden": "376"}, 
      "inputs": [[647, 0, 0], [82, 0, 0], [83, 0, 0]]
    }, 
    {
      "op": "elemwise_add", 
      "name": "_plus181", 
      "inputs": [[643, 0, 0], [648, 0, 0]]
    }, 
    {
      "op": "SliceChannel", 
      "name": "lstm_l_1t6_slice", 
      "attrs": {"num_outputs": "4"}, 
      "inputs": [[649, 0, 0]]
    }, 
    {
      "op": "Activation", 
      "name": "lstm_l_1t6_o", 
      "attrs": {"act_type": "sigmoid"}, 
      "inputs": [[650, 3, 0]]
    }, 
    {
      "op": "Activation", 
      "name": "lstm_l_1t6_f", 
      "attrs": {"act_type": "sigmoid"}, 
      "inputs": [[650, 1, 0]]
    }, 
    {
      "op": "ones_like", 
      "name": "ones_like239", 
      "inputs": [[567, 0, 0]]
    }, 
    {
      "op": "Dropout", 
      "name": "dropout235", 
      "attrs": {"p": "0.1"}, 
      "inputs": [[653, 0, 0]]
    }, 
    {
      "op": "where", 
      "name": "where427", 
      "inputs": [[654, 0, 0], [567, 0, 0], [562, 0, 0]]
    }, 
    {
      "op": "where", 
      "name": "where437", 
      "inputs": [[38, 43, 0], [89, 0, 0], [655, 0, 0]]
    }, 
    {
      "op": "elemwise_mul", 
      "name": "_mul424", 
      "inputs": [[652, 0, 0], [656, 0, 0]]
    }, 
    {
      "op": "Activation", 
      "name": "lstm_l_1t6_i", 
      "attrs": {"act_type": "sigmoid"}, 
      "inputs": [[650, 0, 0]]
    }, 
    {
      "op": "Activation", 
      "name": "lstm_l_1t6_c", 
      "attrs": {"act_type": "tanh"}, 
      "inputs": [[650, 2, 0]]
    }, 
    {
      "op": "elemwise_mul", 
      "name": "_mul425", 
      "inputs": [[658, 0, 0], [659, 0, 0]]
    }, 
    {
      "op": "elemwise_add", 
      "name": "lstm_l_1t6_state", 
      "inputs": [[657, 0, 0], [660, 0, 0]]
    }, 
    {
      "op": "Activation", 
      "name": "activation151", 
      "attrs": {"act_type": "tanh"}, 
      "inputs": [[661, 0, 0]]
    }, 
    {
      "op": "elemwise_mul", 
      "name": "lstm_l_1t6_out", 
      "inputs": [[651, 0, 0], [662, 0, 0]]
    }, 
    {
      "op": "elemwise_add", 
      "name": "lstm_l_1t6_out_plus_residual", 
      "inputs": [[663, 0, 0], [642, 0, 0]]
    }, 
    {
      "op": "FullyConnected", 
      "name": "lstm_l_2t6_i2h", 
      "attrs": {"num_hidden": "376"}, 
      "inputs": [[664, 0, 0], [99, 0, 0], [100, 0, 0]]
    }, 
    {
      "op": "ones_like", 
      "name": "ones_like240", 
      "inputs": [[591, 0, 0]]
    }, 
    {
      "op": "Dropout", 
      "name": "dropout236", 
      "attrs": {"p": "0.1"}, 
      "inputs": [[666, 0, 0]]
    }, 
    {
      "op": "where", 
      "name": "where428", 
      "inputs": [[667, 0, 0], [591, 0, 0], [575, 0, 0]]
    }, 
    {
      "op": "where", 
      "name": "where438", 
      "inputs": [[38, 43, 0], [102, 0, 0], [668, 0, 0]]
    }, 
    {
      "op": "FullyConnected", 
      "name": "lstm_l_2t6_h2h", 
      "attrs": {"num_hidden": "376"}, 
      "inputs": [[669, 0, 0], [104, 0, 0], [105, 0, 0]]
    }, 
    {
      "op": "elemwise_add", 
      "name": "_plus182", 
      "inputs": [[665, 0, 0], [670, 0, 0]]
    }, 
    {
      "op": "SliceChannel", 
      "name": "lstm_l_2t6_slice", 
      "attrs": {"num_outputs": "4"}, 
      "inputs": [[671, 0, 0]]
    }, 
    {
      "op": "Activation", 
      "name": "lstm_l_2t6_o", 
      "attrs": {"act_type": "sigmoid"}, 
      "inputs": [[672, 3, 0]]
    }, 
    {
      "op": "Activation", 
      "name": "lstm_l_2t6_f", 
      "attrs": {"act_type": "sigmoid"}, 
      "inputs": [[672, 1, 0]]
    }, 
    {
      "op": "ones_like", 
      "name": "ones_like241", 
      "inputs": [[589, 0, 0]]
    }, 
    {
      "op": "Dropout", 
      "name": "dropout237", 
      "attrs": {"p": "0.1"}, 
      "inputs": [[675, 0, 0]]
    }, 
    {
      "op": "where", 
      "name": "where429", 
      "inputs": [[676, 0, 0], [589, 0, 0], [584, 0, 0]]
    }, 
    {
      "op": "where", 
      "name": "where439", 
      "inputs": [[38, 43, 0], [111, 0, 0], [677, 0, 0]]
    }, 
    {
      "op": "elemwise_mul", 
      "name": "_mul426", 
      "inputs": [[674, 0, 0], [678, 0, 0]]
    }, 
    {
      "op": "Activation", 
      "name": "lstm_l_2t6_i", 
      "attrs": {"act_type": "sigmoid"}, 
      "inputs": [[672, 0, 0]]
    }, 
    {
      "op": "Activation", 
      "name": "lstm_l_2t6_c", 
      "attrs": {"act_type": "tanh"}, 
      "inputs": [[672, 2, 0]]
    }, 
    {
      "op": "elemwise_mul", 
      "name": "_mul427", 
      "inputs": [[680, 0, 0], [681, 0, 0]]
    }, 
    {
      "op": "elemwise_add", 
      "name": "lstm_l_2t6_state", 
      "inputs": [[679, 0, 0], [682, 0, 0]]
    }, 
    {
      "op": "Activation", 
      "name": "activation152", 
      "attrs": {"act_type": "tanh"}, 
      "inputs": [[683, 0, 0]]
    }, 
    {
      "op": "elemwise_mul", 
      "name": "lstm_l_2t6_out", 
      "inputs": [[673, 0, 0], [684, 0, 0]]
    }, 
    {
      "op": "elemwise_add", 
      "name": "lstm_l_2t6_out_plus_residual", 
      "inputs": [[685, 0, 0], [664, 0, 0]]
    }, 
    {
      "op": "FullyConnected", 
      "name": "lstm_l_3t6_i2h", 
      "attrs": {"num_hidden": "376"}, 
      "inputs": [[686, 0, 0], [121, 0, 0], [122, 0, 0]]
    }, 
    {
      "op": "ones_like", 
      "name": "ones_like242", 
      "inputs": [[613, 0, 0]]
    }, 
    {
      "op": "Dropout", 
      "name": "dropout238", 
      "attrs": {"p": "0.1"}, 
      "inputs": [[688, 0, 0]]
    }, 
    {
      "op": "where", 
      "name": "where430", 
      "inputs": [[689, 0, 0], [613, 0, 0], [597, 0, 0]]
    }, 
    {
      "op": "where", 
      "name": "where440", 
      "inputs": [[38, 43, 0], [124, 0, 0], [690, 0, 0]]
    }, 
    {
      "op": "FullyConnected", 
      "name": "lstm_l_3t6_h2h", 
      "attrs": {"num_hidden": "376"}, 
      "inputs": [[691, 0, 0], [126, 0, 0], [127, 0, 0]]
    }, 
    {
      "op": "elemwise_add", 
      "name": "_plus183", 
      "inputs": [[687, 0, 0], [692, 0, 0]]
    }, 
    {
      "op": "SliceChannel", 
      "name": "lstm_l_3t6_slice", 
      "attrs": {"num_outputs": "4"}, 
      "inputs": [[693, 0, 0]]
    }, 
    {
      "op": "Activation", 
      "name": "lstm_l_3t6_o", 
      "attrs": {"act_type": "sigmoid"}, 
      "inputs": [[694, 3, 0]]
    }, 
    {
      "op": "Activation", 
      "name": "lstm_l_3t6_f", 
      "attrs": {"act_type": "sigmoid"}, 
      "inputs": [[694, 1, 0]]
    }, 
    {
      "op": "ones_like", 
      "name": "ones_like243", 
      "inputs": [[611, 0, 0]]
    }, 
    {
      "op": "Dropout", 
      "name": "dropout239", 
      "attrs": {"p": "0.1"}, 
      "inputs": [[697, 0, 0]]
    }, 
    {
      "op": "where", 
      "name": "where431", 
      "inputs": [[698, 0, 0], [611, 0, 0], [606, 0, 0]]
    }, 
    {
      "op": "where", 
      "name": "where441", 
      "inputs": [[38, 43, 0], [133, 0, 0], [699, 0, 0]]
    }, 
    {
      "op": "elemwise_mul", 
      "name": "_mul428", 
      "inputs": [[696, 0, 0], [700, 0, 0]]
    }, 
    {
      "op": "Activation", 
      "name": "lstm_l_3t6_i", 
      "attrs": {"act_type": "sigmoid"}, 
      "inputs": [[694, 0, 0]]
    }, 
    {
      "op": "Activation", 
      "name": "lstm_l_3t6_c", 
      "attrs": {"act_type": "tanh"}, 
      "inputs": [[694, 2, 0]]
    }, 
    {
      "op": "elemwise_mul", 
      "name": "_mul429", 
      "inputs": [[702, 0, 0], [703, 0, 0]]
    }, 
    {
      "op": "elemwise_add", 
      "name": "lstm_l_3t6_state", 
      "inputs": [[701, 0, 0], [704, 0, 0]]
    }, 
    {
      "op": "Activation", 
      "name": "activation153", 
      "attrs": {"act_type": "tanh"}, 
      "inputs": [[705, 0, 0]]
    }, 
    {
      "op": "elemwise_mul", 
      "name": "lstm_l_3t6_out", 
      "inputs": [[695, 0, 0], [706, 0, 0]]
    }, 
    {
      "op": "elemwise_add", 
      "name": "lstm_l_3t6_out_plus_residual", 
      "inputs": [[707, 0, 0], [686, 0, 0]]
    }, 
    {
      "op": "FullyConnected", 
      "name": "fullyconnected60", 
      "attrs": {"num_hidden": "1"}, 
      "inputs": [[708, 0, 0], [143, 0, 0], [144, 0, 0]]
    }, 
    {
      "op": "elemwise_mul", 
      "name": "_mul433", 
      "inputs": [[709, 0, 0], [32, 0, 0]]
    }, 
    {
      "op": "where", 
      "name": "where450", 
      "inputs": [[38, 43, 0], [46, 0, 0], [710, 0, 0]]
    }, 
    {
      "op": "where", 
      "name": "where451", 
      "inputs": [[17, 43, 0], [12, 43, 0], [711, 0, 0]]
    }, 
    {
      "op": "Concat", 
      "name": "concat71", 
      "attrs": {
        "dim": "1", 
        "num_args": "16"
      }, 
      "inputs": [
        [712, 0, 0], 
        [618, 0, 0], 
        [524, 0, 0], 
        [430, 0, 0], 
        [336, 0, 0], 
        [242, 0, 0], 
        [148, 0, 0], 
        [12, 33, 0], 
        [12, 32, 0], 
        [12, 31, 0], 
        [12, 21, 0], 
        [12, 20, 0], 
        [12, 19, 0], 
        [12, 9, 0], 
        [12, 8, 0], 
        [12, 7, 0]
      ]
    }, 
    {
      "op": "broadcast_div", 
      "name": "broadcast_div33", 
      "inputs": [[713, 0, 0], [32, 0, 0]]
    }, 
    {
      "op": "Concat", 
      "name": "concat72", 
      "attrs": {
        "dim": "1", 
        "num_args": "3"
      }, 
      "inputs": [[41, 44, 0], [34, 0, 0], [714, 0, 0]]
    }, 
    {
      "op": "FullyConnected", 
      "name": "lstm_l_0t7_i2h", 
      "attrs": {"num_hidden": "376"}, 
      "inputs": [[715, 0, 0], [56, 0, 0], [57, 0, 0]]
    }, 
    {
      "op": "ones_like", 
      "name": "ones_like244", 
      "inputs": [[642, 0, 0]]
    }, 
    {
      "op": "Dropout", 
      "name": "dropout240", 
      "attrs": {"p": "0.1"}, 
      "inputs": [[717, 0, 0]]
    }, 
    {
      "op": "where", 
      "name": "where442", 
      "inputs": [[718, 0, 0], [642, 0, 0], [626, 0, 0]]
    }, 
    {
      "op": "where", 
      "name": "where452", 
      "inputs": [[38, 44, 0], [59, 0, 0], [719, 0, 0]]
    }, 
    {
      "op": "FullyConnected", 
      "name": "lstm_l_0t7_h2h", 
      "attrs": {"num_hidden": "376"}, 
      "inputs": [[720, 0, 0], [61, 0, 0], [62, 0, 0]]
    }, 
    {
      "op": "elemwise_add", 
      "name": "_plus186", 
      "inputs": [[716, 0, 0], [721, 0, 0]]
    }, 
    {
      "op": "SliceChannel", 
      "name": "lstm_l_0t7_slice", 
      "attrs": {"num_outputs": "4"}, 
      "inputs": [[722, 0, 0]]
    }, 
    {
      "op": "Activation", 
      "name": "lstm_l_0t7_o", 
      "attrs": {"act_type": "sigmoid"}, 
      "inputs": [[723, 3, 0]]
    }, 
    {
      "op": "Activation", 
      "name": "lstm_l_0t7_f", 
      "attrs": {"act_type": "sigmoid"}, 
      "inputs": [[723, 1, 0]]
    }, 
    {
      "op": "ones_like", 
      "name": "ones_like245", 
      "inputs": [[640, 0, 0]]
    }, 
    {
      "op": "Dropout", 
      "name": "dropout241", 
      "attrs": {"p": "0.1"}, 
      "inputs": [[726, 0, 0]]
    }, 
    {
      "op": "where", 
      "name": "where443", 
      "inputs": [[727, 0, 0], [640, 0, 0], [635, 0, 0]]
    }, 
    {
      "op": "where", 
      "name": "where453", 
      "inputs": [[38, 44, 0], [68, 0, 0], [728, 0, 0]]
    }, 
    {
      "op": "elemwise_mul", 
      "name": "_mul436", 
      "inputs": [[725, 0, 0], [729, 0, 0]]
    }, 
    {
      "op": "Activation", 
      "name": "lstm_l_0t7_i", 
      "attrs": {"act_type": "sigmoid"}, 
      "inputs": [[723, 0, 0]]
    }, 
    {
      "op": "Activation", 
      "name": "lstm_l_0t7_c", 
      "attrs": {"act_type": "tanh"}, 
      "inputs": [[723, 2, 0]]
    }, 
    {
      "op": "elemwise_mul", 
      "name": "_mul437", 
      "inputs": [[731, 0, 0], [732, 0, 0]]
    }, 
    {
      "op": "elemwise_add", 
      "name": "lstm_l_0t7_state", 
      "inputs": [[730, 0, 0], [733, 0, 0]]
    }, 
    {
      "op": "Activation", 
      "name": "activation155", 
      "attrs": {"act_type": "tanh"}, 
      "inputs": [[734, 0, 0]]
    }, 
    {
      "op": "elemwise_mul", 
      "name": "lstm_l_0t7_out", 
      "inputs": [[724, 0, 0], [735, 0, 0]]
    }, 
    {
      "op": "FullyConnected", 
      "name": "lstm_l_1t7_i2h", 
      "attrs": {"num_hidden": "376"}, 
      "inputs": [[736, 0, 0], [77, 0, 0], [78, 0, 0]]
    }, 
    {
      "op": "ones_like", 
      "name": "ones_like246", 
      "inputs": [[663, 0, 0]]
    }, 
    {
      "op": "Dropout", 
      "name": "dropout242", 
      "attrs": {"p": "0.1"}, 
      "inputs": [[738, 0, 0]]
    }, 
    {
      "op": "where", 
      "name": "where444", 
      "inputs": [[739, 0, 0], [663, 0, 0], [647, 0, 0]]
    }, 
    {
      "op": "where", 
      "name": "where454", 
      "inputs": [[38, 44, 0], [80, 0, 0], [740, 0, 0]]
    }, 
    {
      "op": "FullyConnected", 
      "name": "lstm_l_1t7_h2h", 
      "attrs": {"num_hidden": "376"}, 
      "inputs": [[741, 0, 0], [82, 0, 0], [83, 0, 0]]
    }, 
    {
      "op": "elemwise_add", 
      "name": "_plus187", 
      "inputs": [[737, 0, 0], [742, 0, 0]]
    }, 
    {
      "op": "SliceChannel", 
      "name": "lstm_l_1t7_slice", 
      "attrs": {"num_outputs": "4"}, 
      "inputs": [[743, 0, 0]]
    }, 
    {
      "op": "Activation", 
      "name": "lstm_l_1t7_o", 
      "attrs": {"act_type": "sigmoid"}, 
      "inputs": [[744, 3, 0]]
    }, 
    {
      "op": "Activation", 
      "name": "lstm_l_1t7_f", 
      "attrs": {"act_type": "sigmoid"}, 
      "inputs": [[744, 1, 0]]
    }, 
    {
      "op": "ones_like", 
      "name": "ones_like247", 
      "inputs": [[661, 0, 0]]
    }, 
    {
      "op": "Dropout", 
      "name": "dropout243", 
      "attrs": {"p": "0.1"}, 
      "inputs": [[747, 0, 0]]
    }, 
    {
      "op": "where", 
      "name": "where445", 
      "inputs": [[748, 0, 0], [661, 0, 0], [656, 0, 0]]
    }, 
    {
      "op": "where", 
      "name": "where455", 
      "inputs": [[38, 44, 0], [89, 0, 0], [749, 0, 0]]
    }, 
    {
      "op": "elemwise_mul", 
      "name": "_mul438", 
      "inputs": [[746, 0, 0], [750, 0, 0]]
    }, 
    {
      "op": "Activation", 
      "name": "lstm_l_1t7_i", 
      "attrs": {"act_type": "sigmoid"}, 
      "inputs": [[744, 0, 0]]
    }, 
    {
      "op": "Activation", 
      "name": "lstm_l_1t7_c", 
      "attrs": {"act_type": "tanh"}, 
      "inputs": [[744, 2, 0]]
    }, 
    {
      "op": "elemwise_mul", 
      "name": "_mul439", 
      "inputs": [[752, 0, 0], [753, 0, 0]]
    }, 
    {
      "op": "elemwise_add", 
      "name": "lstm_l_1t7_state", 
      "inputs": [[751, 0, 0], [754, 0, 0]]
    }, 
    {
      "op": "Activation", 
      "name": "activation156", 
      "attrs": {"act_type": "tanh"}, 
      "inputs": [[755, 0, 0]]
    }, 
    {
      "op": "elemwise_mul", 
      "name": "lstm_l_1t7_out", 
      "inputs": [[745, 0, 0], [756, 0, 0]]
    }, 
    {
      "op": "elemwise_add", 
      "name": "lstm_l_1t7_out_plus_residual", 
      "inputs": [[757, 0, 0], [736, 0, 0]]
    }, 
    {
      "op": "FullyConnected", 
      "name": "lstm_l_2t7_i2h", 
      "attrs": {"num_hidden": "376"}, 
      "inputs": [[758, 0, 0], [99, 0, 0], [100, 0, 0]]
    }, 
    {
      "op": "ones_like", 
      "name": "ones_like248", 
      "inputs": [[685, 0, 0]]
    }, 
    {
      "op": "Dropout", 
      "name": "dropout244", 
      "attrs": {"p": "0.1"}, 
      "inputs": [[760, 0, 0]]
    }, 
    {
      "op": "where", 
      "name": "where446", 
      "inputs": [[761, 0, 0], [685, 0, 0], [669, 0, 0]]
    }, 
    {
      "op": "where", 
      "name": "where456", 
      "inputs": [[38, 44, 0], [102, 0, 0], [762, 0, 0]]
    }, 
    {
      "op": "FullyConnected", 
      "name": "lstm_l_2t7_h2h", 
      "attrs": {"num_hidden": "376"}, 
      "inputs": [[763, 0, 0], [104, 0, 0], [105, 0, 0]]
    }, 
    {
      "op": "elemwise_add", 
      "name": "_plus188", 
      "inputs": [[759, 0, 0], [764, 0, 0]]
    }, 
    {
      "op": "SliceChannel", 
      "name": "lstm_l_2t7_slice", 
      "attrs": {"num_outputs": "4"}, 
      "inputs": [[765, 0, 0]]
    }, 
    {
      "op": "Activation", 
      "name": "lstm_l_2t7_o", 
      "attrs": {"act_type": "sigmoid"}, 
      "inputs": [[766, 3, 0]]
    }, 
    {
      "op": "Activation", 
      "name": "lstm_l_2t7_f", 
      "attrs": {"act_type": "sigmoid"}, 
      "inputs": [[766, 1, 0]]
    }, 
    {
      "op": "ones_like", 
      "name": "ones_like249", 
      "inputs": [[683, 0, 0]]
    }, 
    {
      "op": "Dropout", 
      "name": "dropout245", 
      "attrs": {"p": "0.1"}, 
      "inputs": [[769, 0, 0]]
    }, 
    {
      "op": "where", 
      "name": "where447", 
      "inputs": [[770, 0, 0], [683, 0, 0], [678, 0, 0]]
    }, 
    {
      "op": "where", 
      "name": "where457", 
      "inputs": [[38, 44, 0], [111, 0, 0], [771, 0, 0]]
    }, 
    {
      "op": "elemwise_mul", 
      "name": "_mul440", 
      "inputs": [[768, 0, 0], [772, 0, 0]]
    }, 
    {
      "op": "Activation", 
      "name": "lstm_l_2t7_i", 
      "attrs": {"act_type": "sigmoid"}, 
      "inputs": [[766, 0, 0]]
    }, 
    {
      "op": "Activation", 
      "name": "lstm_l_2t7_c", 
      "attrs": {"act_type": "tanh"}, 
      "inputs": [[766, 2, 0]]
    }, 
    {
      "op": "elemwise_mul", 
      "name": "_mul441", 
      "inputs": [[774, 0, 0], [775, 0, 0]]
    }, 
    {
      "op": "elemwise_add", 
      "name": "lstm_l_2t7_state", 
      "inputs": [[773, 0, 0], [776, 0, 0]]
    }, 
    {
      "op": "Activation", 
      "name": "activation157", 
      "attrs": {"act_type": "tanh"}, 
      "inputs": [[777, 0, 0]]
    }, 
    {
      "op": "elemwise_mul", 
      "name": "lstm_l_2t7_out", 
      "inputs": [[767, 0, 0], [778, 0, 0]]
    }, 
    {
      "op": "elemwise_add", 
      "name": "lstm_l_2t7_out_plus_residual", 
      "inputs": [[779, 0, 0], [758, 0, 0]]
    }, 
    {
      "op": "FullyConnected", 
      "name": "lstm_l_3t7_i2h", 
      "attrs": {"num_hidden": "376"}, 
      "inputs": [[780, 0, 0], [121, 0, 0], [122, 0, 0]]
    }, 
    {
      "op": "ones_like", 
      "name": "ones_like250", 
      "inputs": [[707, 0, 0]]
    }, 
    {
      "op": "Dropout", 
      "name": "dropout246", 
      "attrs": {"p": "0.1"}, 
      "inputs": [[782, 0, 0]]
    }, 
    {
      "op": "where", 
      "name": "where448", 
      "inputs": [[783, 0, 0], [707, 0, 0], [691, 0, 0]]
    }, 
    {
      "op": "where", 
      "name": "where458", 
      "inputs": [[38, 44, 0], [124, 0, 0], [784, 0, 0]]
    }, 
    {
      "op": "FullyConnected", 
      "name": "lstm_l_3t7_h2h", 
      "attrs": {"num_hidden": "376"}, 
      "inputs": [[785, 0, 0], [126, 0, 0], [127, 0, 0]]
    }, 
    {
      "op": "elemwise_add", 
      "name": "_plus189", 
      "inputs": [[781, 0, 0], [786, 0, 0]]
    }, 
    {
      "op": "SliceChannel", 
      "name": "lstm_l_3t7_slice", 
      "attrs": {"num_outputs": "4"}, 
      "inputs": [[787, 0, 0]]
    }, 
    {
      "op": "Activation", 
      "name": "lstm_l_3t7_o", 
      "attrs": {"act_type": "sigmoid"}, 
      "inputs": [[788, 3, 0]]
    }, 
    {
      "op": "Activation", 
      "name": "lstm_l_3t7_f", 
      "attrs": {"act_type": "sigmoid"}, 
      "inputs": [[788, 1, 0]]
    }, 
    {
      "op": "ones_like", 
      "name": "ones_like251", 
      "inputs": [[705, 0, 0]]
    }, 
    {
      "op": "Dropout", 
      "name": "dropout247", 
      "attrs": {"p": "0.1"}, 
      "inputs": [[791, 0, 0]]
    }, 
    {
      "op": "where", 
      "name": "where449", 
      "inputs": [[792, 0, 0], [705, 0, 0], [700, 0, 0]]
    }, 
    {
      "op": "where", 
      "name": "where459", 
      "inputs": [[38, 44, 0], [133, 0, 0], [793, 0, 0]]
    }, 
    {
      "op": "elemwise_mul", 
      "name": "_mul442", 
      "inputs": [[790, 0, 0], [794, 0, 0]]
    }, 
    {
      "op": "Activation", 
      "name": "lstm_l_3t7_i", 
      "attrs": {"act_type": "sigmoid"}, 
      "inputs": [[788, 0, 0]]
    }, 
    {
      "op": "Activation", 
      "name": "lstm_l_3t7_c", 
      "attrs": {"act_type": "tanh"}, 
      "inputs": [[788, 2, 0]]
    }, 
    {
      "op": "elemwise_mul", 
      "name": "_mul443", 
      "inputs": [[796, 0, 0], [797, 0, 0]]
    }, 
    {
      "op": "elemwise_add", 
      "name": "lstm_l_3t7_state", 
      "inputs": [[795, 0, 0], [798, 0, 0]]
    }, 
    {
      "op": "Activation", 
      "name": "activation158", 
      "attrs": {"act_type": "tanh"}, 
      "inputs": [[799, 0, 0]]
    }, 
    {
      "op": "elemwise_mul", 
      "name": "lstm_l_3t7_out", 
      "inputs": [[789, 0, 0], [800, 0, 0]]
    }, 
    {
      "op": "elemwise_add", 
      "name": "lstm_l_3t7_out_plus_residual", 
      "inputs": [[801, 0, 0], [780, 0, 0]]
    }, 
    {
      "op": "FullyConnected", 
      "name": "fullyconnected62", 
      "attrs": {"num_hidden": "1"}, 
      "inputs": [[802, 0, 0], [143, 0, 0], [144, 0, 0]]
    }, 
    {
      "op": "elemwise_mul", 
      "name": "_mul447", 
      "inputs": [[803, 0, 0], [32, 0, 0]]
    }, 
    {
      "op": "where", 
      "name": "where468", 
      "inputs": [[38, 44, 0], [45, 0, 0], [804, 0, 0]]
    }, 
    {
      "op": "where", 
      "name": "where469", 
      "inputs": [[17, 44, 0], [12, 44, 0], [805, 0, 0]]
    }, 
    {
      "op": "Concat", 
      "name": "concat73", 
      "attrs": {
        "dim": "1", 
        "num_args": "16"
      }, 
      "inputs": [
        [806, 0, 0], 
        [712, 0, 0], 
        [618, 0, 0], 
        [524, 0, 0], 
        [430, 0, 0], 
        [336, 0, 0], 
        [242, 0, 0], 
        [12, 34, 0], 
        [12, 33, 0], 
        [12, 32, 0], 
        [12, 22, 0], 
        [12, 21, 0], 
        [12, 20, 0], 
        [12, 10, 0], 
        [12, 9, 0], 
        [12, 8, 0]
      ]
    }, 
    {
      "op": "broadcast_div", 
      "name": "broadcast_div34", 
      "inputs": [[807, 0, 0], [32, 0, 0]]
    }, 
    {
      "op": "Concat", 
      "name": "concat74", 
      "attrs": {
        "dim": "1", 
        "num_args": "3"
      }, 
      "inputs": [[41, 45, 0], [34, 0, 0], [808, 0, 0]]
    }, 
    {
      "op": "FullyConnected", 
      "name": "lstm_l_0t8_i2h", 
      "attrs": {"num_hidden": "376"}, 
      "inputs": [[809, 0, 0], [56, 0, 0], [57, 0, 0]]
    }, 
    {
      "op": "ones_like", 
      "name": "ones_like252", 
      "inputs": [[736, 0, 0]]
    }, 
    {
      "op": "Dropout", 
      "name": "dropout248", 
      "attrs": {"p": "0.1"}, 
      "inputs": [[811, 0, 0]]
    }, 
    {
      "op": "where", 
      "name": "where460", 
      "inputs": [[812, 0, 0], [736, 0, 0], [720, 0, 0]]
    }, 
    {
      "op": "where", 
      "name": "where470", 
      "inputs": [[38, 45, 0], [59, 0, 0], [813, 0, 0]]
    }, 
    {
      "op": "FullyConnected", 
      "name": "lstm_l_0t8_h2h", 
      "attrs": {"num_hidden": "376"}, 
      "inputs": [[814, 0, 0], [61, 0, 0], [62, 0, 0]]
    }, 
    {
      "op": "elemwise_add", 
      "name": "_plus192", 
      "inputs": [[810, 0, 0], [815, 0, 0]]
    }, 
    {
      "op": "SliceChannel", 
      "name": "lstm_l_0t8_slice", 
      "attrs": {"num_outputs": "4"}, 
      "inputs": [[816, 0, 0]]
    }, 
    {
      "op": "Activation", 
      "name": "lstm_l_0t8_o", 
      "attrs": {"act_type": "sigmoid"}, 
      "inputs": [[817, 3, 0]]
    }, 
    {
      "op": "Activation", 
      "name": "lstm_l_0t8_f", 
      "attrs": {"act_type": "sigmoid"}, 
      "inputs": [[817, 1, 0]]
    }, 
    {
      "op": "ones_like", 
      "name": "ones_like253", 
      "inputs": [[734, 0, 0]]
    }, 
    {
      "op": "Dropout", 
      "name": "dropout249", 
      "attrs": {"p": "0.1"}, 
      "inputs": [[820, 0, 0]]
    }, 
    {
      "op": "where", 
      "name": "where461", 
      "inputs": [[821, 0, 0], [734, 0, 0], [729, 0, 0]]
    }, 
    {
      "op": "where", 
      "name": "where471", 
      "inputs": [[38, 45, 0], [68, 0, 0], [822, 0, 0]]
    }, 
    {
      "op": "elemwise_mul", 
      "name": "_mul450", 
      "inputs": [[819, 0, 0], [823, 0, 0]]
    }, 
    {
      "op": "Activation", 
      "name": "lstm_l_0t8_i", 
      "attrs": {"act_type": "sigmoid"}, 
      "inputs": [[817, 0, 0]]
    }, 
    {
      "op": "Activation", 
      "name": "lstm_l_0t8_c", 
      "attrs": {"act_type": "tanh"}, 
      "inputs": [[817, 2, 0]]
    }, 
    {
      "op": "elemwise_mul", 
      "name": "_mul451", 
      "inputs": [[825, 0, 0], [826, 0, 0]]
    }, 
    {
      "op": "elemwise_add", 
      "name": "lstm_l_0t8_state", 
      "inputs": [[824, 0, 0], [827, 0, 0]]
    }, 
    {
      "op": "Activation", 
      "name": "activation160", 
      "attrs": {"act_type": "tanh"}, 
      "inputs": [[828, 0, 0]]
    }, 
    {
      "op": "elemwise_mul", 
      "name": "lstm_l_0t8_out", 
      "inputs": [[818, 0, 0], [829, 0, 0]]
    }, 
    {
      "op": "FullyConnected", 
      "name": "lstm_l_1t8_i2h", 
      "attrs": {"num_hidden": "376"}, 
      "inputs": [[830, 0, 0], [77, 0, 0], [78, 0, 0]]
    }, 
    {
      "op": "ones_like", 
      "name": "ones_like254", 
      "inputs": [[757, 0, 0]]
    }, 
    {
      "op": "Dropout", 
      "name": "dropout250", 
      "attrs": {"p": "0.1"}, 
      "inputs": [[832, 0, 0]]
    }, 
    {
      "op": "where", 
      "name": "where462", 
      "inputs": [[833, 0, 0], [757, 0, 0], [741, 0, 0]]
    }, 
    {
      "op": "where", 
      "name": "where472", 
      "inputs": [[38, 45, 0], [80, 0, 0], [834, 0, 0]]
    }, 
    {
      "op": "FullyConnected", 
      "name": "lstm_l_1t8_h2h", 
      "attrs": {"num_hidden": "376"}, 
      "inputs": [[835, 0, 0], [82, 0, 0], [83, 0, 0]]
    }, 
    {
      "op": "elemwise_add", 
      "name": "_plus193", 
      "inputs": [[831, 0, 0], [836, 0, 0]]
    }, 
    {
      "op": "SliceChannel", 
      "name": "lstm_l_1t8_slice", 
      "attrs": {"num_outputs": "4"}, 
      "inputs": [[837, 0, 0]]
    }, 
    {
      "op": "Activation", 
      "name": "lstm_l_1t8_o", 
      "attrs": {"act_type": "sigmoid"}, 
      "inputs": [[838, 3, 0]]
    }, 
    {
      "op": "Activation", 
      "name": "lstm_l_1t8_f", 
      "attrs": {"act_type": "sigmoid"}, 
      "inputs": [[838, 1, 0]]
    }, 
    {
      "op": "ones_like", 
      "name": "ones_like255", 
      "inputs": [[755, 0, 0]]
    }, 
    {
      "op": "Dropout", 
      "name": "dropout251", 
      "attrs": {"p": "0.1"}, 
      "inputs": [[841, 0, 0]]
    }, 
    {
      "op": "where", 
      "name": "where463", 
      "inputs": [[842, 0, 0], [755, 0, 0], [750, 0, 0]]
    }, 
    {
      "op": "where", 
      "name": "where473", 
      "inputs": [[38, 45, 0], [89, 0, 0], [843, 0, 0]]
    }, 
    {
      "op": "elemwise_mul", 
      "name": "_mul452", 
      "inputs": [[840, 0, 0], [844, 0, 0]]
    }, 
    {
      "op": "Activation", 
      "name": "lstm_l_1t8_i", 
      "attrs": {"act_type": "sigmoid"}, 
      "inputs": [[838, 0, 0]]
    }, 
    {
      "op": "Activation", 
      "name": "lstm_l_1t8_c", 
      "attrs": {"act_type": "tanh"}, 
      "inputs": [[838, 2, 0]]
    }, 
    {
      "op": "elemwise_mul", 
      "name": "_mul453", 
      "inputs": [[846, 0, 0], [847, 0, 0]]
    }, 
    {
      "op": "elemwise_add", 
      "name": "lstm_l_1t8_state", 
      "inputs": [[845, 0, 0], [848, 0, 0]]
    }, 
    {
      "op": "Activation", 
      "name": "activation161", 
      "attrs": {"act_type": "tanh"}, 
      "inputs": [[849, 0, 0]]
    }, 
    {
      "op": "elemwise_mul", 
      "name": "lstm_l_1t8_out", 
      "inputs": [[839, 0, 0], [850, 0, 0]]
    }, 
    {
      "op": "elemwise_add", 
      "name": "lstm_l_1t8_out_plus_residual", 
      "inputs": [[851, 0, 0], [830, 0, 0]]
    }, 
    {
      "op": "FullyConnected", 
      "name": "lstm_l_2t8_i2h", 
      "attrs": {"num_hidden": "376"}, 
      "inputs": [[852, 0, 0], [99, 0, 0], [100, 0, 0]]
    }, 
    {
      "op": "ones_like", 
      "name": "ones_like256", 
      "inputs": [[779, 0, 0]]
    }, 
    {
      "op": "Dropout", 
      "name": "dropout252", 
      "attrs": {"p": "0.1"}, 
      "inputs": [[854, 0, 0]]
    }, 
    {
      "op": "where", 
      "name": "where464", 
      "inputs": [[855, 0, 0], [779, 0, 0], [763, 0, 0]]
    }, 
    {
      "op": "where", 
      "name": "where474", 
      "inputs": [[38, 45, 0], [102, 0, 0], [856, 0, 0]]
    }, 
    {
      "op": "FullyConnected", 
      "name": "lstm_l_2t8_h2h", 
      "attrs": {"num_hidden": "376"}, 
      "inputs": [[857, 0, 0], [104, 0, 0], [105, 0, 0]]
    }, 
    {
      "op": "elemwise_add", 
      "name": "_plus194", 
      "inputs": [[853, 0, 0], [858, 0, 0]]
    }, 
    {
      "op": "SliceChannel", 
      "name": "lstm_l_2t8_slice", 
      "attrs": {"num_outputs": "4"}, 
      "inputs": [[859, 0, 0]]
    }, 
    {
      "op": "Activation", 
      "name": "lstm_l_2t8_o", 
      "attrs": {"act_type": "sigmoid"}, 
      "inputs": [[860, 3, 0]]
    }, 
    {
      "op": "Activation", 
      "name": "lstm_l_2t8_f", 
      "attrs": {"act_type": "sigmoid"}, 
      "inputs": [[860, 1, 0]]
    }, 
    {
      "op": "ones_like", 
      "name": "ones_like257", 
      "inputs": [[777, 0, 0]]
    }, 
    {
      "op": "Dropout", 
      "name": "dropout253", 
      "attrs": {"p": "0.1"}, 
      "inputs": [[863, 0, 0]]
    }, 
    {
      "op": "where", 
      "name": "where465", 
      "inputs": [[864, 0, 0], [777, 0, 0], [772, 0, 0]]
    }, 
    {
      "op": "where", 
      "name": "where475", 
      "inputs": [[38, 45, 0], [111, 0, 0], [865, 0, 0]]
    }, 
    {
      "op": "elemwise_mul", 
      "name": "_mul454", 
      "inputs": [[862, 0, 0], [866, 0, 0]]
    }, 
    {
      "op": "Activation", 
      "name": "lstm_l_2t8_i", 
      "attrs": {"act_type": "sigmoid"}, 
      "inputs": [[860, 0, 0]]
    }, 
    {
      "op": "Activation", 
      "name": "lstm_l_2t8_c", 
      "attrs": {"act_type": "tanh"}, 
      "inputs": [[860, 2, 0]]
    }, 
    {
      "op": "elemwise_mul", 
      "name": "_mul455", 
      "inputs": [[868, 0, 0], [869, 0, 0]]
    }, 
    {
      "op": "elemwise_add", 
      "name": "lstm_l_2t8_state", 
      "inputs": [[867, 0, 0], [870, 0, 0]]
    }, 
    {
      "op": "Activation", 
      "name": "activation162", 
      "attrs": {"act_type": "tanh"}, 
      "inputs": [[871, 0, 0]]
    }, 
    {
      "op": "elemwise_mul", 
      "name": "lstm_l_2t8_out", 
      "inputs": [[861, 0, 0], [872, 0, 0]]
    }, 
    {
      "op": "elemwise_add", 
      "name": "lstm_l_2t8_out_plus_residual", 
      "inputs": [[873, 0, 0], [852, 0, 0]]
    }, 
    {
      "op": "FullyConnected", 
      "name": "lstm_l_3t8_i2h", 
      "attrs": {"num_hidden": "376"}, 
      "inputs": [[874, 0, 0], [121, 0, 0], [122, 0, 0]]
    }, 
    {
      "op": "ones_like", 
      "name": "ones_like258", 
      "inputs": [[801, 0, 0]]
    }, 
    {
      "op": "Dropout", 
      "name": "dropout254", 
      "attrs": {"p": "0.1"}, 
      "inputs": [[876, 0, 0]]
    }, 
    {
      "op": "where", 
      "name": "where466", 
      "inputs": [[877, 0, 0], [801, 0, 0], [785, 0, 0]]
    }, 
    {
      "op": "where", 
      "name": "where476", 
      "inputs": [[38, 45, 0], [124, 0, 0], [878, 0, 0]]
    }, 
    {
      "op": "FullyConnected", 
      "name": "lstm_l_3t8_h2h", 
      "attrs": {"num_hidden": "376"}, 
      "inputs": [[879, 0, 0], [126, 0, 0], [127, 0, 0]]
    }, 
    {
      "op": "elemwise_add", 
      "name": "_plus195", 
      "inputs": [[875, 0, 0], [880, 0, 0]]
    }, 
    {
      "op": "SliceChannel", 
      "name": "lstm_l_3t8_slice", 
      "attrs": {"num_outputs": "4"}, 
      "inputs": [[881, 0, 0]]
    }, 
    {
      "op": "Activation", 
      "name": "lstm_l_3t8_o", 
      "attrs": {"act_type": "sigmoid"}, 
      "inputs": [[882, 3, 0]]
    }, 
    {
      "op": "Activation", 
      "name": "lstm_l_3t8_f", 
      "attrs": {"act_type": "sigmoid"}, 
      "inputs": [[882, 1, 0]]
    }, 
    {
      "op": "ones_like", 
      "name": "ones_like259", 
      "inputs": [[799, 0, 0]]
    }, 
    {
      "op": "Dropout", 
      "name": "dropout255", 
      "attrs": {"p": "0.1"}, 
      "inputs": [[885, 0, 0]]
    }, 
    {
      "op": "where", 
      "name": "where467", 
      "inputs": [[886, 0, 0], [799, 0, 0], [794, 0, 0]]
    }, 
    {
      "op": "where", 
      "name": "where477", 
      "inputs": [[38, 45, 0], [133, 0, 0], [887, 0, 0]]
    }, 
    {
      "op": "elemwise_mul", 
      "name": "_mul456", 
      "inputs": [[884, 0, 0], [888, 0, 0]]
    }, 
    {
      "op": "Activation", 
      "name": "lstm_l_3t8_i", 
      "attrs": {"act_type": "sigmoid"}, 
      "inputs": [[882, 0, 0]]
    }, 
    {
      "op": "Activation", 
      "name": "lstm_l_3t8_c", 
      "attrs": {"act_type": "tanh"}, 
      "inputs": [[882, 2, 0]]
    }, 
    {
      "op": "elemwise_mul", 
      "name": "_mul457", 
      "inputs": [[890, 0, 0], [891, 0, 0]]
    }, 
    {
      "op": "elemwise_add", 
      "name": "lstm_l_3t8_state", 
      "inputs": [[889, 0, 0], [892, 0, 0]]
    }, 
    {
      "op": "Activation", 
      "name": "activation163", 
      "attrs": {"act_type": "tanh"}, 
      "inputs": [[893, 0, 0]]
    }, 
    {
      "op": "elemwise_mul", 
      "name": "lstm_l_3t8_out", 
      "inputs": [[883, 0, 0], [894, 0, 0]]
    }, 
    {
      "op": "elemwise_add", 
      "name": "lstm_l_3t8_out_plus_residual", 
      "inputs": [[895, 0, 0], [874, 0, 0]]
    }, 
    {
      "op": "FullyConnected", 
      "name": "fullyconnected64", 
      "attrs": {"num_hidden": "1"}, 
      "inputs": [[896, 0, 0], [143, 0, 0], [144, 0, 0]]
    }, 
    {
      "op": "elemwise_mul", 
      "name": "_mul461", 
      "inputs": [[897, 0, 0], [32, 0, 0]]
    }, 
    {
      "op": "where", 
      "name": "where486", 
      "inputs": [[38, 45, 0], [44, 0, 0], [898, 0, 0]]
    }, 
    {
      "op": "where", 
      "name": "where487", 
      "inputs": [[17, 45, 0], [12, 45, 0], [899, 0, 0]]
    }, 
    {
      "op": "Concat", 
      "name": "concat75", 
      "attrs": {
        "dim": "1", 
        "num_args": "16"
      }, 
      "inputs": [
        [900, 0, 0], 
        [806, 0, 0], 
        [712, 0, 0], 
        [618, 0, 0], 
        [524, 0, 0], 
        [430, 0, 0], 
        [336, 0, 0], 
        [12, 35, 0], 
        [12, 34, 0], 
        [12, 33, 0], 
        [12, 23, 0], 
        [12, 22, 0], 
        [12, 21, 0], 
        [12, 11, 0], 
        [12, 10, 0], 
        [12, 9, 0]
      ]
    }, 
    {
      "op": "broadcast_div", 
      "name": "broadcast_div35", 
      "inputs": [[901, 0, 0], [32, 0, 0]]
    }, 
    {
      "op": "Concat", 
      "name": "concat76", 
      "attrs": {
        "dim": "1", 
        "num_args": "3"
      }, 
      "inputs": [[41, 46, 0], [34, 0, 0], [902, 0, 0]]
    }, 
    {
      "op": "FullyConnected", 
      "name": "lstm_l_0t9_i2h", 
      "attrs": {"num_hidden": "376"}, 
      "inputs": [[903, 0, 0], [56, 0, 0], [57, 0, 0]]
    }, 
    {
      "op": "ones_like", 
      "name": "ones_like260", 
      "inputs": [[830, 0, 0]]
    }, 
    {
      "op": "Dropout", 
      "name": "dropout256", 
      "attrs": {"p": "0.1"}, 
      "inputs": [[905, 0, 0]]
    }, 
    {
      "op": "where", 
      "name": "where478", 
      "inputs": [[906, 0, 0], [830, 0, 0], [814, 0, 0]]
    }, 
    {
      "op": "where", 
      "name": "where488", 
      "inputs": [[38, 46, 0], [59, 0, 0], [907, 0, 0]]
    }, 
    {
      "op": "FullyConnected", 
      "name": "lstm_l_0t9_h2h", 
      "attrs": {"num_hidden": "376"}, 
      "inputs": [[908, 0, 0], [61, 0, 0], [62, 0, 0]]
    }, 
    {
      "op": "elemwise_add", 
      "name": "_plus198", 
      "inputs": [[904, 0, 0], [909, 0, 0]]
    }, 
    {
      "op": "SliceChannel", 
      "name": "lstm_l_0t9_slice", 
      "attrs": {"num_outputs": "4"}, 
      "inputs": [[910, 0, 0]]
    }, 
    {
      "op": "Activation", 
      "name": "lstm_l_0t9_o", 
      "attrs": {"act_type": "sigmoid"}, 
      "inputs": [[911, 3, 0]]
    }, 
    {
      "op": "Activation", 
      "name": "lstm_l_0t9_f", 
      "attrs": {"act_type": "sigmoid"}, 
      "inputs": [[911, 1, 0]]
    }, 
    {
      "op": "ones_like", 
      "name": "ones_like261", 
      "inputs": [[828, 0, 0]]
    }, 
    {
      "op": "Dropout", 
      "name": "dropout257", 
      "attrs": {"p": "0.1"}, 
      "inputs": [[914, 0, 0]]
    }, 
    {
      "op": "where", 
      "name": "where479", 
      "inputs": [[915, 0, 0], [828, 0, 0], [823, 0, 0]]
    }, 
    {
      "op": "where", 
      "name": "where489", 
      "inputs": [[38, 46, 0], [68, 0, 0], [916, 0, 0]]
    }, 
    {
      "op": "elemwise_mul", 
      "name": "_mul464", 
      "inputs": [[913, 0, 0], [917, 0, 0]]
    }, 
    {
      "op": "Activation", 
      "name": "lstm_l_0t9_i", 
      "attrs": {"act_type": "sigmoid"}, 
      "inputs": [[911, 0, 0]]
    }, 
    {
      "op": "Activation", 
      "name": "lstm_l_0t9_c", 
      "attrs": {"act_type": "tanh"}, 
      "inputs": [[911, 2, 0]]
    }, 
    {
      "op": "elemwise_mul", 
      "name": "_mul465", 
      "inputs": [[919, 0, 0], [920, 0, 0]]
    }, 
    {
      "op": "elemwise_add", 
      "name": "lstm_l_0t9_state", 
      "inputs": [[918, 0, 0], [921, 0, 0]]
    }, 
    {
      "op": "Activation", 
      "name": "activation165", 
      "attrs": {"act_type": "tanh"}, 
      "inputs": [[922, 0, 0]]
    }, 
    {
      "op": "elemwise_mul", 
      "name": "lstm_l_0t9_out", 
      "inputs": [[912, 0, 0], [923, 0, 0]]
    }, 
    {
      "op": "FullyConnected", 
      "name": "lstm_l_1t9_i2h", 
      "attrs": {"num_hidden": "376"}, 
      "inputs": [[924, 0, 0], [77, 0, 0], [78, 0, 0]]
    }, 
    {
      "op": "ones_like", 
      "name": "ones_like262", 
      "inputs": [[851, 0, 0]]
    }, 
    {
      "op": "Dropout", 
      "name": "dropout258", 
      "attrs": {"p": "0.1"}, 
      "inputs": [[926, 0, 0]]
    }, 
    {
      "op": "where", 
      "name": "where480", 
      "inputs": [[927, 0, 0], [851, 0, 0], [835, 0, 0]]
    }, 
    {
      "op": "where", 
      "name": "where490", 
      "inputs": [[38, 46, 0], [80, 0, 0], [928, 0, 0]]
    }, 
    {
      "op": "FullyConnected", 
      "name": "lstm_l_1t9_h2h", 
      "attrs": {"num_hidden": "376"}, 
      "inputs": [[929, 0, 0], [82, 0, 0], [83, 0, 0]]
    }, 
    {
      "op": "elemwise_add", 
      "name": "_plus199", 
      "inputs": [[925, 0, 0], [930, 0, 0]]
    }, 
    {
      "op": "SliceChannel", 
      "name": "lstm_l_1t9_slice", 
      "attrs": {"num_outputs": "4"}, 
      "inputs": [[931, 0, 0]]
    }, 
    {
      "op": "Activation", 
      "name": "lstm_l_1t9_o", 
      "attrs": {"act_type": "sigmoid"}, 
      "inputs": [[932, 3, 0]]
    }, 
    {
      "op": "Activation", 
      "name": "lstm_l_1t9_f", 
      "attrs": {"act_type": "sigmoid"}, 
      "inputs": [[932, 1, 0]]
    }, 
    {
      "op": "ones_like", 
      "name": "ones_like263", 
      "inputs": [[849, 0, 0]]
    }, 
    {
      "op": "Dropout", 
      "name": "dropout259", 
      "attrs": {"p": "0.1"}, 
      "inputs": [[935, 0, 0]]
    }, 
    {
      "op": "where", 
      "name": "where481", 
      "inputs": [[936, 0, 0], [849, 0, 0], [844, 0, 0]]
    }, 
    {
      "op": "where", 
      "name": "where491", 
      "inputs": [[38, 46, 0], [89, 0, 0], [937, 0, 0]]
    }, 
    {
      "op": "elemwise_mul", 
      "name": "_mul466", 
      "inputs": [[934, 0, 0], [938, 0, 0]]
    }, 
    {
      "op": "Activation", 
      "name": "lstm_l_1t9_i", 
      "attrs": {"act_type": "sigmoid"}, 
      "inputs": [[932, 0, 0]]
    }, 
    {
      "op": "Activation", 
      "name": "lstm_l_1t9_c", 
      "attrs": {"act_type": "tanh"}, 
      "inputs": [[932, 2, 0]]
    }, 
    {
      "op": "elemwise_mul", 
      "name": "_mul467", 
      "inputs": [[940, 0, 0], [941, 0, 0]]
    }, 
    {
      "op": "elemwise_add", 
      "name": "lstm_l_1t9_state", 
      "inputs": [[939, 0, 0], [942, 0, 0]]
    }, 
    {
      "op": "Activation", 
      "name": "activation166", 
      "attrs": {"act_type": "tanh"}, 
      "inputs": [[943, 0, 0]]
    }, 
    {
      "op": "elemwise_mul", 
      "name": "lstm_l_1t9_out", 
      "inputs": [[933, 0, 0], [944, 0, 0]]
    }, 
    {
      "op": "elemwise_add", 
      "name": "lstm_l_1t9_out_plus_residual", 
      "inputs": [[945, 0, 0], [924, 0, 0]]
    }, 
    {
      "op": "FullyConnected", 
      "name": "lstm_l_2t9_i2h", 
      "attrs": {"num_hidden": "376"}, 
      "inputs": [[946, 0, 0], [99, 0, 0], [100, 0, 0]]
    }, 
    {
      "op": "ones_like", 
      "name": "ones_like264", 
      "inputs": [[873, 0, 0]]
    }, 
    {
      "op": "Dropout", 
      "name": "dropout260", 
      "attrs": {"p": "0.1"}, 
      "inputs": [[948, 0, 0]]
    }, 
    {
      "op": "where", 
      "name": "where482", 
      "inputs": [[949, 0, 0], [873, 0, 0], [857, 0, 0]]
    }, 
    {
      "op": "where", 
      "name": "where492", 
      "inputs": [[38, 46, 0], [102, 0, 0], [950, 0, 0]]
    }, 
    {
      "op": "FullyConnected", 
      "name": "lstm_l_2t9_h2h", 
      "attrs": {"num_hidden": "376"}, 
      "inputs": [[951, 0, 0], [104, 0, 0], [105, 0, 0]]
    }, 
    {
      "op": "elemwise_add", 
      "name": "_plus200", 
      "inputs": [[947, 0, 0], [952, 0, 0]]
    }, 
    {
      "op": "SliceChannel", 
      "name": "lstm_l_2t9_slice", 
      "attrs": {"num_outputs": "4"}, 
      "inputs": [[953, 0, 0]]
    }, 
    {
      "op": "Activation", 
      "name": "lstm_l_2t9_o", 
      "attrs": {"act_type": "sigmoid"}, 
      "inputs": [[954, 3, 0]]
    }, 
    {
      "op": "Activation", 
      "name": "lstm_l_2t9_f", 
      "attrs": {"act_type": "sigmoid"}, 
      "inputs": [[954, 1, 0]]
    }, 
    {
      "op": "ones_like", 
      "name": "ones_like265", 
      "inputs": [[871, 0, 0]]
    }, 
    {
      "op": "Dropout", 
      "name": "dropout261", 
      "attrs": {"p": "0.1"}, 
      "inputs": [[957, 0, 0]]
    }, 
    {
      "op": "where", 
      "name": "where483", 
      "inputs": [[958, 0, 0], [871, 0, 0], [866, 0, 0]]
    }, 
    {
      "op": "where", 
      "name": "where493", 
      "inputs": [[38, 46, 0], [111, 0, 0], [959, 0, 0]]
    }, 
    {
      "op": "elemwise_mul", 
      "name": "_mul468", 
      "inputs": [[956, 0, 0], [960, 0, 0]]
    }, 
    {
      "op": "Activation", 
      "name": "lstm_l_2t9_i", 
      "attrs": {"act_type": "sigmoid"}, 
      "inputs": [[954, 0, 0]]
    }, 
    {
      "op": "Activation", 
      "name": "lstm_l_2t9_c", 
      "attrs": {"act_type": "tanh"}, 
      "inputs": [[954, 2, 0]]
    }, 
    {
      "op": "elemwise_mul", 
      "name": "_mul469", 
      "inputs": [[962, 0, 0], [963, 0, 0]]
    }, 
    {
      "op": "elemwise_add", 
      "name": "lstm_l_2t9_state", 
      "inputs": [[961, 0, 0], [964, 0, 0]]
    }, 
    {
      "op": "Activation", 
      "name": "activation167", 
      "attrs": {"act_type": "tanh"}, 
      "inputs": [[965, 0, 0]]
    }, 
    {
      "op": "elemwise_mul", 
      "name": "lstm_l_2t9_out", 
      "inputs": [[955, 0, 0], [966, 0, 0]]
    }, 
    {
      "op": "elemwise_add", 
      "name": "lstm_l_2t9_out_plus_residual", 
      "inputs": [[967, 0, 0], [946, 0, 0]]
    }, 
    {
      "op": "FullyConnected", 
      "name": "lstm_l_3t9_i2h", 
      "attrs": {"num_hidden": "376"}, 
      "inputs": [[968, 0, 0], [121, 0, 0], [122, 0, 0]]
    }, 
    {
      "op": "ones_like", 
      "name": "ones_like266", 
      "inputs": [[895, 0, 0]]
    }, 
    {
      "op": "Dropout", 
      "name": "dropout262", 
      "attrs": {"p": "0.1"}, 
      "inputs": [[970, 0, 0]]
    }, 
    {
      "op": "where", 
      "name": "where484", 
      "inputs": [[971, 0, 0], [895, 0, 0], [879, 0, 0]]
    }, 
    {
      "op": "where", 
      "name": "where494", 
      "inputs": [[38, 46, 0], [124, 0, 0], [972, 0, 0]]
    }, 
    {
      "op": "FullyConnected", 
      "name": "lstm_l_3t9_h2h", 
      "attrs": {"num_hidden": "376"}, 
      "inputs": [[973, 0, 0], [126, 0, 0], [127, 0, 0]]
    }, 
    {
      "op": "elemwise_add", 
      "name": "_plus201", 
      "inputs": [[969, 0, 0], [974, 0, 0]]
    }, 
    {
      "op": "SliceChannel", 
      "name": "lstm_l_3t9_slice", 
      "attrs": {"num_outputs": "4"}, 
      "inputs": [[975, 0, 0]]
    }, 
    {
      "op": "Activation", 
      "name": "lstm_l_3t9_o", 
      "attrs": {"act_type": "sigmoid"}, 
      "inputs": [[976, 3, 0]]
    }, 
    {
      "op": "Activation", 
      "name": "lstm_l_3t9_f", 
      "attrs": {"act_type": "sigmoid"}, 
      "inputs": [[976, 1, 0]]
    }, 
    {
      "op": "ones_like", 
      "name": "ones_like267", 
      "inputs": [[893, 0, 0]]
    }, 
    {
      "op": "Dropout", 
      "name": "dropout263", 
      "attrs": {"p": "0.1"}, 
      "inputs": [[979, 0, 0]]
    }, 
    {
      "op": "where", 
      "name": "where485", 
      "inputs": [[980, 0, 0], [893, 0, 0], [888, 0, 0]]
    }, 
    {
      "op": "where", 
      "name": "where495", 
      "inputs": [[38, 46, 0], [133, 0, 0], [981, 0, 0]]
    }, 
    {
      "op": "elemwise_mul", 
      "name": "_mul470", 
      "inputs": [[978, 0, 0], [982, 0, 0]]
    }, 
    {
      "op": "Activation", 
      "name": "lstm_l_3t9_i", 
      "attrs": {"act_type": "sigmoid"}, 
      "inputs": [[976, 0, 0]]
    }, 
    {
      "op": "Activation", 
      "name": "lstm_l_3t9_c", 
      "attrs": {"act_type": "tanh"}, 
      "inputs": [[976, 2, 0]]
    }, 
    {
      "op": "elemwise_mul", 
      "name": "_mul471", 
      "inputs": [[984, 0, 0], [985, 0, 0]]
    }, 
    {
      "op": "elemwise_add", 
      "name": "lstm_l_3t9_state", 
      "inputs": [[983, 0, 0], [986, 0, 0]]
    }, 
    {
      "op": "Activation", 
      "name": "activation168", 
      "attrs": {"act_type": "tanh"}, 
      "inputs": [[987, 0, 0]]
    }, 
    {
      "op": "elemwise_mul", 
      "name": "lstm_l_3t9_out", 
      "inputs": [[977, 0, 0], [988, 0, 0]]
    }, 
    {
      "op": "elemwise_add", 
      "name": "lstm_l_3t9_out_plus_residual", 
      "inputs": [[989, 0, 0], [968, 0, 0]]
    }, 
    {
      "op": "FullyConnected", 
      "name": "fullyconnected66", 
      "attrs": {"num_hidden": "1"}, 
      "inputs": [[990, 0, 0], [143, 0, 0], [144, 0, 0]]
    }, 
    {
      "op": "elemwise_mul", 
      "name": "_mul475", 
      "inputs": [[991, 0, 0], [32, 0, 0]]
    }, 
    {
      "op": "where", 
      "name": "where504", 
      "inputs": [[38, 46, 0], [43, 0, 0], [992, 0, 0]]
    }, 
    {
      "op": "where", 
      "name": "where505", 
      "inputs": [[17, 46, 0], [12, 46, 0], [993, 0, 0]]
    }, 
    {
      "op": "Concat", 
      "name": "concat77", 
      "attrs": {
        "dim": "1", 
        "num_args": "16"
      }, 
      "inputs": [
        [994, 0, 0], 
        [900, 0, 0], 
        [806, 0, 0], 
        [712, 0, 0], 
        [618, 0, 0], 
        [524, 0, 0], 
        [430, 0, 0], 
        [12, 36, 0], 
        [12, 35, 0], 
        [12, 34, 0], 
        [12, 24, 0], 
        [12, 23, 0], 
        [12, 22, 0], 
        [12, 12, 0], 
        [12, 11, 0], 
        [12, 10, 0]
      ]
    }, 
    {
      "op": "broadcast_div", 
      "name": "broadcast_div36", 
      "inputs": [[995, 0, 0], [32, 0, 0]]
    }, 
    {
      "op": "Concat", 
      "name": "concat78", 
      "attrs": {
        "dim": "1", 
        "num_args": "3"
      }, 
      "inputs": [[41, 47, 0], [34, 0, 0], [996, 0, 0]]
    }, 
    {
      "op": "FullyConnected", 
      "name": "lstm_l_0t10_i2h", 
      "attrs": {"num_hidden": "376"}, 
      "inputs": [[997, 0, 0], [56, 0, 0], [57, 0, 0]]
    }, 
    {
      "op": "ones_like", 
      "name": "ones_like268", 
      "inputs": [[924, 0, 0]]
    }, 
    {
      "op": "Dropout", 
      "name": "dropout264", 
      "attrs": {"p": "0.1"}, 
      "inputs": [[999, 0, 0]]
    }, 
    {
      "op": "where", 
      "name": "where496", 
      "inputs": [[1000, 0, 0], [924, 0, 0], [908, 0, 0]]
    }, 
    {
      "op": "where", 
      "name": "where506", 
      "inputs": [[38, 47, 0], [59, 0, 0], [1001, 0, 0]]
    }, 
    {
      "op": "FullyConnected", 
      "name": "lstm_l_0t10_h2h", 
      "attrs": {"num_hidden": "376"}, 
      "inputs": [[1002, 0, 0], [61, 0, 0], [62, 0, 0]]
    }, 
    {
      "op": "elemwise_add", 
      "name": "_plus204", 
      "inputs": [[998, 0, 0], [1003, 0, 0]]
    }, 
    {
      "op": "SliceChannel", 
      "name": "lstm_l_0t10_slice", 
      "attrs": {"num_outputs": "4"}, 
      "inputs": [[1004, 0, 0]]
    }, 
    {
      "op": "Activation", 
      "name": "lstm_l_0t10_o", 
      "attrs": {"act_type": "sigmoid"}, 
      "inputs": [[1005, 3, 0]]
    }, 
    {
      "op": "Activation", 
      "name": "lstm_l_0t10_f", 
      "attrs": {"act_type": "sigmoid"}, 
      "inputs": [[1005, 1, 0]]
    }, 
    {
      "op": "ones_like", 
      "name": "ones_like269", 
      "inputs": [[922, 0, 0]]
    }, 
    {
      "op": "Dropout", 
      "name": "dropout265", 
      "attrs": {"p": "0.1"}, 
      "inputs": [[1008, 0, 0]]
    }, 
    {
      "op": "where", 
      "name": "where497", 
      "inputs": [[1009, 0, 0], [922, 0, 0], [917, 0, 0]]
    }, 
    {
      "op": "where", 
      "name": "where507", 
      "inputs": [[38, 47, 0], [68, 0, 0], [1010, 0, 0]]
    }, 
    {
      "op": "elemwise_mul", 
      "name": "_mul478", 
      "inputs": [[1007, 0, 0], [1011, 0, 0]]
    }, 
    {
      "op": "Activation", 
      "name": "lstm_l_0t10_i", 
      "attrs": {"act_type": "sigmoid"}, 
      "inputs": [[1005, 0, 0]]
    }, 
    {
      "op": "Activation", 
      "name": "lstm_l_0t10_c", 
      "attrs": {"act_type": "tanh"}, 
      "inputs": [[1005, 2, 0]]
    }, 
    {
      "op": "elemwise_mul", 
      "name": "_mul479", 
      "inputs": [[1013, 0, 0], [1014, 0, 0]]
    }, 
    {
      "op": "elemwise_add", 
      "name": "lstm_l_0t10_state", 
      "inputs": [[1012, 0, 0], [1015, 0, 0]]
    }, 
    {
      "op": "Activation", 
      "name": "activation170", 
      "attrs": {"act_type": "tanh"}, 
      "inputs": [[1016, 0, 0]]
    }, 
    {
      "op": "elemwise_mul", 
      "name": "lstm_l_0t10_out", 
      "inputs": [[1006, 0, 0], [1017, 0, 0]]
    }, 
    {
      "op": "FullyConnected", 
      "name": "lstm_l_1t10_i2h", 
      "attrs": {"num_hidden": "376"}, 
      "inputs": [[1018, 0, 0], [77, 0, 0], [78, 0, 0]]
    }, 
    {
      "op": "ones_like", 
      "name": "ones_like270", 
      "inputs": [[945, 0, 0]]
    }, 
    {
      "op": "Dropout", 
      "name": "dropout266", 
      "attrs": {"p": "0.1"}, 
      "inputs": [[1020, 0, 0]]
    }, 
    {
      "op": "where", 
      "name": "where498", 
      "inputs": [[1021, 0, 0], [945, 0, 0], [929, 0, 0]]
    }, 
    {
      "op": "where", 
      "name": "where508", 
      "inputs": [[38, 47, 0], [80, 0, 0], [1022, 0, 0]]
    }, 
    {
      "op": "FullyConnected", 
      "name": "lstm_l_1t10_h2h", 
      "attrs": {"num_hidden": "376"}, 
      "inputs": [[1023, 0, 0], [82, 0, 0], [83, 0, 0]]
    }, 
    {
      "op": "elemwise_add", 
      "name": "_plus205", 
      "inputs": [[1019, 0, 0], [1024, 0, 0]]
    }, 
    {
      "op": "SliceChannel", 
      "name": "lstm_l_1t10_slice", 
      "attrs": {"num_outputs": "4"}, 
      "inputs": [[1025, 0, 0]]
    }, 
    {
      "op": "Activation", 
      "name": "lstm_l_1t10_o", 
      "attrs": {"act_type": "sigmoid"}, 
      "inputs": [[1026, 3, 0]]
    }, 
    {
      "op": "Activation", 
      "name": "lstm_l_1t10_f", 
      "attrs": {"act_type": "sigmoid"}, 
      "inputs": [[1026, 1, 0]]
    }, 
    {
      "op": "ones_like", 
      "name": "ones_like271", 
      "inputs": [[943, 0, 0]]
    }, 
    {
      "op": "Dropout", 
      "name": "dropout267", 
      "attrs": {"p": "0.1"}, 
      "inputs": [[1029, 0, 0]]
    }, 
    {
      "op": "where", 
      "name": "where499", 
      "inputs": [[1030, 0, 0], [943, 0, 0], [938, 0, 0]]
    }, 
    {
      "op": "where", 
      "name": "where509", 
      "inputs": [[38, 47, 0], [89, 0, 0], [1031, 0, 0]]
    }, 
    {
      "op": "elemwise_mul", 
      "name": "_mul480", 
      "inputs": [[1028, 0, 0], [1032, 0, 0]]
    }, 
    {
      "op": "Activation", 
      "name": "lstm_l_1t10_i", 
      "attrs": {"act_type": "sigmoid"}, 
      "inputs": [[1026, 0, 0]]
    }, 
    {
      "op": "Activation", 
      "name": "lstm_l_1t10_c", 
      "attrs": {"act_type": "tanh"}, 
      "inputs": [[1026, 2, 0]]
    }, 
    {
      "op": "elemwise_mul", 
      "name": "_mul481", 
      "inputs": [[1034, 0, 0], [1035, 0, 0]]
    }, 
    {
      "op": "elemwise_add", 
      "name": "lstm_l_1t10_state", 
      "inputs": [[1033, 0, 0], [1036, 0, 0]]
    }, 
    {
      "op": "Activation", 
      "name": "activation171", 
      "attrs": {"act_type": "tanh"}, 
      "inputs": [[1037, 0, 0]]
    }, 
    {
      "op": "elemwise_mul", 
      "name": "lstm_l_1t10_out", 
      "inputs": [[1027, 0, 0], [1038, 0, 0]]
    }, 
    {
      "op": "elemwise_add", 
      "name": "lstm_l_1t10_out_plus_residual", 
      "inputs": [[1039, 0, 0], [1018, 0, 0]]
    }, 
    {
      "op": "FullyConnected", 
      "name": "lstm_l_2t10_i2h", 
      "attrs": {"num_hidden": "376"}, 
      "inputs": [[1040, 0, 0], [99, 0, 0], [100, 0, 0]]
    }, 
    {
      "op": "ones_like", 
      "name": "ones_like272", 
      "inputs": [[967, 0, 0]]
    }, 
    {
      "op": "Dropout", 
      "name": "dropout268", 
      "attrs": {"p": "0.1"}, 
      "inputs": [[1042, 0, 0]]
    }, 
    {
      "op": "where", 
      "name": "where500", 
      "inputs": [[1043, 0, 0], [967, 0, 0], [951, 0, 0]]
    }, 
    {
      "op": "where", 
      "name": "where510", 
      "inputs": [[38, 47, 0], [102, 0, 0], [1044, 0, 0]]
    }, 
    {
      "op": "FullyConnected", 
      "name": "lstm_l_2t10_h2h", 
      "attrs": {"num_hidden": "376"}, 
      "inputs": [[1045, 0, 0], [104, 0, 0], [105, 0, 0]]
    }, 
    {
      "op": "elemwise_add", 
      "name": "_plus206", 
      "inputs": [[1041, 0, 0], [1046, 0, 0]]
    }, 
    {
      "op": "SliceChannel", 
      "name": "lstm_l_2t10_slice", 
      "attrs": {"num_outputs": "4"}, 
      "inputs": [[1047, 0, 0]]
    }, 
    {
      "op": "Activation", 
      "name": "lstm_l_2t10_o", 
      "attrs": {"act_type": "sigmoid"}, 
      "inputs": [[1048, 3, 0]]
    }, 
    {
      "op": "Activation", 
      "name": "lstm_l_2t10_f", 
      "attrs": {"act_type": "sigmoid"}, 
      "inputs": [[1048, 1, 0]]
    }, 
    {
      "op": "ones_like", 
      "name": "ones_like273", 
      "inputs": [[965, 0, 0]]
    }, 
    {
      "op": "Dropout", 
      "name": "dropout269", 
      "attrs": {"p": "0.1"}, 
      "inputs": [[1051, 0, 0]]
    }, 
    {
      "op": "where", 
      "name": "where501", 
      "inputs": [[1052, 0, 0], [965, 0, 0], [960, 0, 0]]
    }, 
    {
      "op": "where", 
      "name": "where511", 
      "inputs": [[38, 47, 0], [111, 0, 0], [1053, 0, 0]]
    }, 
    {
      "op": "elemwise_mul", 
      "name": "_mul482", 
      "inputs": [[1050, 0, 0], [1054, 0, 0]]
    }, 
    {
      "op": "Activation", 
      "name": "lstm_l_2t10_i", 
      "attrs": {"act_type": "sigmoid"}, 
      "inputs": [[1048, 0, 0]]
    }, 
    {
      "op": "Activation", 
      "name": "lstm_l_2t10_c", 
      "attrs": {"act_type": "tanh"}, 
      "inputs": [[1048, 2, 0]]
    }, 
    {
      "op": "elemwise_mul", 
      "name": "_mul483", 
      "inputs": [[1056, 0, 0], [1057, 0, 0]]
    }, 
    {
      "op": "elemwise_add", 
      "name": "lstm_l_2t10_state", 
      "inputs": [[1055, 0, 0], [1058, 0, 0]]
    }, 
    {
      "op": "Activation", 
      "name": "activation172", 
      "attrs": {"act_type": "tanh"}, 
      "inputs": [[1059, 0, 0]]
    }, 
    {
      "op": "elemwise_mul", 
      "name": "lstm_l_2t10_out", 
      "inputs": [[1049, 0, 0], [1060, 0, 0]]
    }, 
    {
      "op": "elemwise_add", 
      "name": "lstm_l_2t10_out_plus_residual", 
      "inputs": [[1061, 0, 0], [1040, 0, 0]]
    }, 
    {
      "op": "FullyConnected", 
      "name": "lstm_l_3t10_i2h", 
      "attrs": {"num_hidden": "376"}, 
      "inputs": [[1062, 0, 0], [121, 0, 0], [122, 0, 0]]
    }, 
    {
      "op": "ones_like", 
      "name": "ones_like274", 
      "inputs": [[989, 0, 0]]
    }, 
    {
      "op": "Dropout", 
      "name": "dropout270", 
      "attrs": {"p": "0.1"}, 
      "inputs": [[1064, 0, 0]]
    }, 
    {
      "op": "where", 
      "name": "where502", 
      "inputs": [[1065, 0, 0], [989, 0, 0], [973, 0, 0]]
    }, 
    {
      "op": "where", 
      "name": "where512", 
      "inputs": [[38, 47, 0], [124, 0, 0], [1066, 0, 0]]
    }, 
    {
      "op": "FullyConnected", 
      "name": "lstm_l_3t10_h2h", 
      "attrs": {"num_hidden": "376"}, 
      "inputs": [[1067, 0, 0], [126, 0, 0], [127, 0, 0]]
    }, 
    {
      "op": "elemwise_add", 
      "name": "_plus207", 
      "inputs": [[1063, 0, 0], [1068, 0, 0]]
    }, 
    {
      "op": "SliceChannel", 
      "name": "lstm_l_3t10_slice", 
      "attrs": {"num_outputs": "4"}, 
      "inputs": [[1069, 0, 0]]
    }, 
    {
      "op": "Activation", 
      "name": "lstm_l_3t10_o", 
      "attrs": {"act_type": "sigmoid"}, 
      "inputs": [[1070, 3, 0]]
    }, 
    {
      "op": "Activation", 
      "name": "lstm_l_3t10_f", 
      "attrs": {"act_type": "sigmoid"}, 
      "inputs": [[1070, 1, 0]]
    }, 
    {
      "op": "ones_like", 
      "name": "ones_like275", 
      "inputs": [[987, 0, 0]]
    }, 
    {
      "op": "Dropout", 
      "name": "dropout271", 
      "attrs": {"p": "0.1"}, 
      "inputs": [[1073, 0, 0]]
    }, 
    {
      "op": "where", 
      "name": "where503", 
      "inputs": [[1074, 0, 0], [987, 0, 0], [982, 0, 0]]
    }, 
    {
      "op": "where", 
      "name": "where513", 
      "inputs": [[38, 47, 0], [133, 0, 0], [1075, 0, 0]]
    }, 
    {
      "op": "elemwise_mul", 
      "name": "_mul484", 
      "inputs": [[1072, 0, 0], [1076, 0, 0]]
    }, 
    {
      "op": "Activation", 
      "name": "lstm_l_3t10_i", 
      "attrs": {"act_type": "sigmoid"}, 
      "inputs": [[1070, 0, 0]]
    }, 
    {
      "op": "Activation", 
      "name": "lstm_l_3t10_c", 
      "attrs": {"act_type": "tanh"}, 
      "inputs": [[1070, 2, 0]]
    }, 
    {
      "op": "elemwise_mul", 
      "name": "_mul485", 
      "inputs": [[1078, 0, 0], [1079, 0, 0]]
    }, 
    {
      "op": "elemwise_add", 
      "name": "lstm_l_3t10_state", 
      "inputs": [[1077, 0, 0], [1080, 0, 0]]
    }, 
    {
      "op": "Activation", 
      "name": "activation173", 
      "attrs": {"act_type": "tanh"}, 
      "inputs": [[1081, 0, 0]]
    }, 
    {
      "op": "elemwise_mul", 
      "name": "lstm_l_3t10_out", 
      "inputs": [[1071, 0, 0], [1082, 0, 0]]
    }, 
    {
      "op": "elemwise_add", 
      "name": "lstm_l_3t10_out_plus_residual", 
      "inputs": [[1083, 0, 0], [1062, 0, 0]]
    }, 
    {
      "op": "FullyConnected", 
      "name": "fullyconnected68", 
      "attrs": {"num_hidden": "1"}, 
      "inputs": [[1084, 0, 0], [143, 0, 0], [144, 0, 0]]
    }, 
    {
      "op": "elemwise_mul", 
      "name": "_mul489", 
      "inputs": [[1085, 0, 0], [32, 0, 0]]
    }, 
    {
      "op": "where", 
      "name": "where522", 
      "inputs": [[38, 47, 0], [42, 0, 0], [1086, 0, 0]]
    }, 
    {
      "op": "where", 
      "name": "where523", 
      "inputs": [[17, 47, 0], [12, 47, 0], [1087, 0, 0]]
    }, 
    {
      "op": "Concat", 
      "name": "concat79", 
      "attrs": {
        "dim": "1", 
        "num_args": "16"
      }, 
      "inputs": [
        [1088, 0, 0], 
        [994, 0, 0], 
        [900, 0, 0], 
        [806, 0, 0], 
        [712, 0, 0], 
        [618, 0, 0], 
        [524, 0, 0], 
        [148, 0, 0], 
        [12, 36, 0], 
        [12, 35, 0], 
        [12, 25, 0], 
        [12, 24, 0], 
        [12, 23, 0], 
        [12, 13, 0], 
        [12, 12, 0], 
        [12, 11, 0]
      ]
    }, 
    {
      "op": "broadcast_div", 
      "name": "broadcast_div37", 
      "inputs": [[1089, 0, 0], [32, 0, 0]]
    }, 
    {
      "op": "Concat", 
      "name": "concat80", 
      "attrs": {
        "dim": "1", 
        "num_args": "3"
      }, 
      "inputs": [[41, 48, 0], [34, 0, 0], [1090, 0, 0]]
    }, 
    {
      "op": "FullyConnected", 
      "name": "lstm_l_0t11_i2h", 
      "attrs": {"num_hidden": "376"}, 
      "inputs": [[1091, 0, 0], [56, 0, 0], [57, 0, 0]]
    }, 
    {
      "op": "ones_like", 
      "name": "ones_like276", 
      "inputs": [[1018, 0, 0]]
    }, 
    {
      "op": "Dropout", 
      "name": "dropout272", 
      "attrs": {"p": "0.1"}, 
      "inputs": [[1093, 0, 0]]
    }, 
    {
      "op": "where", 
      "name": "where514", 
      "inputs": [[1094, 0, 0], [1018, 0, 0], [1002, 0, 0]]
    }, 
    {
      "op": "where", 
      "name": "where524", 
      "inputs": [[38, 48, 0], [59, 0, 0], [1095, 0, 0]]
    }, 
    {
      "op": "FullyConnected", 
      "name": "lstm_l_0t11_h2h", 
      "attrs": {"num_hidden": "376"}, 
      "inputs": [[1096, 0, 0], [61, 0, 0], [62, 0, 0]]
    }, 
    {
      "op": "elemwise_add", 
      "name": "_plus210", 
      "inputs": [[1092, 0, 0], [1097, 0, 0]]
    }, 
    {
      "op": "SliceChannel", 
      "name": "lstm_l_0t11_slice", 
      "attrs": {"num_outputs": "4"}, 
      "inputs": [[1098, 0, 0]]
    }, 
    {
      "op": "Activation", 
      "name": "lstm_l_0t11_o", 
      "attrs": {"act_type": "sigmoid"}, 
      "inputs": [[1099, 3, 0]]
    }, 
    {
      "op": "Activation", 
      "name": "lstm_l_0t11_f", 
      "attrs": {"act_type": "sigmoid"}, 
      "inputs": [[1099, 1, 0]]
    }, 
    {
      "op": "ones_like", 
      "name": "ones_like277", 
      "inputs": [[1016, 0, 0]]
    }, 
    {
      "op": "Dropout", 
      "name": "dropout273", 
      "attrs": {"p": "0.1"}, 
      "inputs": [[1102, 0, 0]]
    }, 
    {
      "op": "where", 
      "name": "where515", 
      "inputs": [[1103, 0, 0], [1016, 0, 0], [1011, 0, 0]]
    }, 
    {
      "op": "where", 
      "name": "where525", 
      "inputs": [[38, 48, 0], [68, 0, 0], [1104, 0, 0]]
    }, 
    {
      "op": "elemwise_mul", 
      "name": "_mul492", 
      "inputs": [[1101, 0, 0], [1105, 0, 0]]
    }, 
    {
      "op": "Activation", 
      "name": "lstm_l_0t11_i", 
      "attrs": {"act_type": "sigmoid"}, 
      "inputs": [[1099, 0, 0]]
    }, 
    {
      "op": "Activation", 
      "name": "lstm_l_0t11_c", 
      "attrs": {"act_type": "tanh"}, 
      "inputs": [[1099, 2, 0]]
    }, 
    {
      "op": "elemwise_mul", 
      "name": "_mul493", 
      "inputs": [[1107, 0, 0], [1108, 0, 0]]
    }, 
    {
      "op": "elemwise_add", 
      "name": "lstm_l_0t11_state", 
      "inputs": [[1106, 0, 0], [1109, 0, 0]]
    }, 
    {
      "op": "Activation", 
      "name": "activation175", 
…
      "inputs": [[2221, 0, 0], [2231, 0, 0]]
    }, 
    {
      "op": "FullyConnected", 
      "name": "lstm_l_1t34_i2h", 
      "attrs": {"num_hidden": "376"}, 
      "inputs": [[2232, 0, 0], [77, 0, 0], [78, 0, 0]]
    }, 
    {
      "op": "ones_like", 
      "name": "ones_like462", 
      "inputs": [[2153, 0, 0]]
    }, 
    {
      "op": "Dropout", 
      "name": "dropout458", 
      "attrs": {"p": "0.1"}, 
      "inputs": [[2234, 0, 0]]
    }, 
    {
      "op": "where", 
      "name": "where712", 
      "inputs": [[2235, 0, 0], [2153, 0, 0], [2138, 0, 0]]
    }, 
    {
      "op": "FullyConnected", 
      "name": "lstm_l_1t34_h2h", 
      "attrs": {"num_hidden": "376"}, 
      "inputs": [[2236, 0, 0], [82, 0, 0], [83, 0, 0]]
    }, 
    {
      "op": "elemwise_add", 
      "name": "_plus339", 
      "inputs": [[2233, 0, 0], [2237, 0, 0]]
    }, 
    {
      "op": "SliceChannel", 
      "name": "lstm_l_1t34_slice", 
      "attrs": {"num_outputs": "4"}, 
      "inputs": [[2238, 0, 0]]
    }, 
    {
      "op": "Activation", 
      "name": "lstm_l_1t34_o", 
      "attrs": {"act_type": "sigmoid"}, 
      "inputs": [[2239, 3, 0]]
    }, 
    {
      "op": "Activation", 
      "name": "lstm_l_1t34_f", 
      "attrs": {"act_type": "sigmoid"}, 
      "inputs": [[2239, 1, 0]]
    }, 
    {
      "op": "ones_like", 
      "name": "ones_like463", 
      "inputs": [[2151, 0, 0]]
    }, 
    {
      "op": "Dropout", 
      "name": "dropout459", 
      "attrs": {"p": "0.1"}, 
      "inputs": [[2242, 0, 0]]
    }, 
    {
      "op": "where", 
      "name": "where713", 
      "inputs": [[2243, 0, 0], [2151, 0, 0], [2146, 0, 0]]
    }, 
    {
      "op": "elemwise_mul", 
      "name": "_mul806", 
      "inputs": [[2241, 0, 0], [2244, 0, 0]]
    }, 
    {
      "op": "Activation", 
      "name": "lstm_l_1t34_i", 
      "attrs": {"act_type": "sigmoid"}, 
      "inputs": [[2239, 0, 0]]
    }, 
    {
      "op": "Activation", 
      "name": "lstm_l_1t34_c", 
      "attrs": {"act_type": "tanh"}, 
      "inputs": [[2239, 2, 0]]
    }, 
    {
      "op": "elemwise_mul", 
      "name": "_mul807", 
      "inputs": [[2246, 0, 0], [2247, 0, 0]]
    }, 
    {
      "op": "elemwise_add", 
      "name": "lstm_l_1t34_state", 
      "inputs": [[2245, 0, 0], [2248, 0, 0]]
    }, 
    {
      "op": "Activation", 
      "name": "activation291", 
      "attrs": {"act_type": "tanh"}, 
      "inputs": [[2249, 0, 0]]
    }, 
    {
      "op": "elemwise_mul", 
      "name": "lstm_l_1t34_out", 
      "inputs": [[2240, 0, 0], [2250, 0, 0]]
    }, 
    {
      "op": "elemwise_add", 
      "name": "lstm_l_1t34_out_plus_residual", 
      "inputs": [[2251, 0, 0], [2232, 0, 0]]
    }, 
    {
      "op": "FullyConnected", 
      "name": "lstm_l_2t34_i2h", 
      "attrs": {"num_hidden": "376"}, 
      "inputs": [[2252, 0, 0], [99, 0, 0], [100, 0, 0]]
    }, 
    {
      "op": "ones_like", 
      "name": "ones_like464", 
      "inputs": [[2173, 0, 0]]
    }, 
    {
      "op": "Dropout", 
      "name": "dropout460", 
      "attrs": {"p": "0.1"}, 
      "inputs": [[2254, 0, 0]]
    }, 
    {
      "op": "where", 
      "name": "where714", 
      "inputs": [[2255, 0, 0], [2173, 0, 0], [2158, 0, 0]]
    }, 
    {
      "op": "FullyConnected", 
      "name": "lstm_l_2t34_h2h", 
      "attrs": {"num_hidden": "376"}, 
      "inputs": [[2256, 0, 0], [104, 0, 0], [105, 0, 0]]
    }, 
    {
      "op": "elemwise_add", 
      "name": "_plus340", 
      "inputs": [[2253, 0, 0], [2257, 0, 0]]
    }, 
    {
      "op": "SliceChannel", 
      "name": "lstm_l_2t34_slice", 
      "attrs": {"num_outputs": "4"}, 
      "inputs": [[2258, 0, 0]]
    }, 
    {
      "op": "Activation", 
      "name": "lstm_l_2t34_o", 
      "attrs": {"act_type": "sigmoid"}, 
      "inputs": [[2259, 3, 0]]
    }, 
    {
      "op": "Activation", 
      "name": "lstm_l_2t34_f", 
      "attrs": {"act_type": "sigmoid"}, 
      "inputs": [[2259, 1, 0]]
    }, 
    {
      "op": "ones_like", 
      "name": "ones_like465", 
      "inputs": [[2171, 0, 0]]
    }, 
    {
      "op": "Dropout", 
      "name": "dropout461", 
      "attrs": {"p": "0.1"}, 
      "inputs": [[2262, 0, 0]]
    }, 
    {
      "op": "where", 
      "name": "where715", 
      "inputs": [[2263, 0, 0], [2171, 0, 0], [2166, 0, 0]]
    }, 
    {
      "op": "elemwise_mul", 
      "name": "_mul808", 
      "inputs": [[2261, 0, 0], [2264, 0, 0]]
    }, 
    {
      "op": "Activation", 
      "name": "lstm_l_2t34_i", 
      "attrs": {"act_type": "sigmoid"}, 
      "inputs": [[2259, 0, 0]]
    }, 
    {
      "op": "Activation", 
      "name": "lstm_l_2t34_c", 
      "attrs": {"act_type": "tanh"}, 
      "inputs": [[2259, 2, 0]]
    }, 
    {
      "op": "elemwise_mul", 
      "name": "_mul809", 
      "inputs": [[2266, 0, 0], [2267, 0, 0]]
    }, 
    {
      "op": "elemwise_add", 
      "name": "lstm_l_2t34_state", 
      "inputs": [[2265, 0, 0], [2268, 0, 0]]
    }, 
    {
      "op": "Activation", 
      "name": "activation292", 
      "attrs": {"act_type": "tanh"}, 
      "inputs": [[2269, 0, 0]]
    }, 
    {
      "op": "elemwise_mul", 
      "name": "lstm_l_2t34_out", 
      "inputs": [[2260, 0, 0], [2270, 0, 0]]
    }, 
    {
      "op": "elemwise_add", 
      "name": "lstm_l_2t34_out_plus_residual", 
      "inputs": [[2271, 0, 0], [2252, 0, 0]]
    }, 
    {
      "op": "FullyConnected", 
      "name": "lstm_l_3t34_i2h", 
      "attrs": {"num_hidden": "376"}, 
      "inputs": [[2272, 0, 0], [121, 0, 0], [122, 0, 0]]
    }, 
    {
      "op": "ones_like", 
      "name": "ones_like466", 
      "inputs": [[2193, 0, 0]]
    }, 
    {
      "op": "Dropout", 
      "name": "dropout462", 
      "attrs": {"p": "0.1"}, 
      "inputs": [[2274, 0, 0]]
    }, 
    {
      "op": "where", 
      "name": "where716", 
      "inputs": [[2275, 0, 0], [2193, 0, 0], [2178, 0, 0]]
    }, 
    {
      "op": "FullyConnected", 
      "name": "lstm_l_3t34_h2h", 
      "attrs": {"num_hidden": "376"}, 
      "inputs": [[2276, 0, 0], [126, 0, 0], [127, 0, 0]]
    }, 
    {
      "op": "elemwise_add", 
      "name": "_plus341", 
      "inputs": [[2273, 0, 0], [2277, 0, 0]]
    }, 
    {
      "op": "SliceChannel", 
      "name": "lstm_l_3t34_slice", 
      "attrs": {"num_outputs": "4"}, 
      "inputs": [[2278, 0, 0]]
    }, 
    {
      "op": "Activation", 
      "name": "lstm_l_3t34_o", 
      "attrs": {"act_type": "sigmoid"}, 
      "inputs": [[2279, 3, 0]]
    }, 
    {
      "op": "Activation", 
      "name": "lstm_l_3t34_f", 
      "attrs": {"act_type": "sigmoid"}, 
      "inputs": [[2279, 1, 0]]
    }, 
    {
      "op": "ones_like", 
      "name": "ones_like467", 
      "inputs": [[2191, 0, 0]]
    }, 
    {
      "op": "Dropout", 
      "name": "dropout463", 
      "attrs": {"p": "0.1"}, 
      "inputs": [[2282, 0, 0]]
    }, 
    {
      "op": "where", 
      "name": "where717", 
      "inputs": [[2283, 0, 0], [2191, 0, 0], [2186, 0, 0]]
    }, 
    {
      "op": "elemwise_mul", 
      "name": "_mul810", 
      "inputs": [[2281, 0, 0], [2284, 0, 0]]
    }, 
    {
      "op": "Activation", 
      "name": "lstm_l_3t34_i", 
      "attrs": {"act_type": "sigmoid"}, 
      "inputs": [[2279, 0, 0]]
    }, 
    {
      "op": "Activation", 
      "name": "lstm_l_3t34_c", 
      "attrs": {"act_type": "tanh"}, 
      "inputs": [[2279, 2, 0]]
    }, 
    {
      "op": "elemwise_mul", 
      "name": "_mul811", 
      "inputs": [[2286, 0, 0], [2287, 0, 0]]
    }, 
    {
      "op": "elemwise_add", 
      "name": "lstm_l_3t34_state", 
      "inputs": [[2285, 0, 0], [2288, 0, 0]]
    }, 
    {
      "op": "Activation", 
      "name": "activation293", 
      "attrs": {"act_type": "tanh"}, 
      "inputs": [[2289, 0, 0]]
    }, 
    {
      "op": "elemwise_mul", 
      "name": "lstm_l_3t34_out", 
      "inputs": [[2280, 0, 0], [2290, 0, 0]]
    }, 
    {
      "op": "elemwise_add", 
      "name": "lstm_l_3t34_out_plus_residual", 
      "inputs": [[2291, 0, 0], [2272, 0, 0]]
    }, 
    {
      "op": "FullyConnected", 
      "name": "fullyconnected116", 
      "attrs": {"num_hidden": "1"}, 
      "inputs": [[2292, 0, 0], [143, 0, 0], [144, 0, 0]]
    }, 
    {
      "op": "elemwise_mul", 
      "name": "_mul815", 
      "inputs": [[2293, 0, 0], [1200, 0, 0]]
    }, 
    {
      "op": "FullyConnected", 
      "name": "fullyconnected117", 
      "attrs": {"num_hidden": "1"}, 
      "inputs": [[2292, 0, 0], [1292, 0, 0], [1293, 0, 0]]
    }, 
    {
      "op": "zeros_like", 
      "name": "zeros_like84", 
      "inputs": [[2295, 0, 0]]
    }, 
    {
      "op": "_plus_scalar", 
      "name": "_plusscalar106", 
      "attrs": {"scalar": "20.0"}, 
      "inputs": [[2296, 0, 0]]
    }, 
    {
      "op": "broadcast_lesser", 
      "name": "broadcast_lesser58", 
      "inputs": [[2295, 0, 0], [2297, 0, 0]]
    }, 
    {
      "op": "elemwise_mul", 
      "name": "_mul812", 
      "inputs": [[2298, 0, 0], [2295, 0, 0]]
    }, 
    {
      "op": "Activation", 
      "name": "activation294", 
      "attrs": {"act_type": "softrelu"}, 
      "inputs": [[2299, 0, 0]]
    }, 
    {
      "op": "elemwise_mul", 
      "name": "_mul813", 
      "inputs": [[2298, 0, 0], [2300, 0, 0]]
    }, 
    {
      "op": "broadcast_greater_equal", 
      "name": "broadcast_greater_equal58", 
      "inputs": [[2295, 0, 0], [2297, 0, 0]]
    }, 
    {
      "op": "elemwise_mul", 
      "name": "_mul814", 
      "inputs": [[2302, 0, 0], [2295, 0, 0]]
    }, 
    {
      "op": "elemwise_add", 
      "name": "_plus342", 
      "inputs": [[2301, 0, 0], [2303, 0, 0]]
    }, 
    {
      "op": "elemwise_mul", 
      "name": "_mul816", 
      "inputs": [[2304, 0, 0], [1200, 0, 0]]
    }, 
    {
      "op": "_sample_normal", 
      "name": "sample_normal34", 
      "inputs": [[2294, 0, 0], [2305, 0, 0]]
    }, 
    {
      "op": "repeat", 
      "name": "repeat80", 
      "attrs": {
        "axis": "0", 
        "repeats": "100"
      }, 
      "inputs": [[1, 11, 0]]
    }, 
    {
      "op": "repeat", 
      "name": "repeat81", 
      "attrs": {
        "axis": "0", 
        "repeats": "100"
      }, 
      "inputs": [[34, 0, 0]]
    }, 
    {
      "op": "Concat", 
      "name": "concat130", 
      "attrs": {
        "dim": "1", 
        "num_args": "16"
      }, 
      "inputs": [
        [2306, 0, 0], 
        [2208, 0, 0], 
        [2108, 0, 0], 
        [2008, 0, 0], 
        [1908, 0, 0], 
        [1808, 0, 0], 
        [1708, 0, 0], 
        [1305, 0, 0], 
        [1183, 0, 0], 
        [1184, 0, 0], 
        [1191, 0, 0], 
        [1192, 0, 0], 
        [2111, 0, 0], 
        [1194, 0, 0], 
        [1195, 0, 0], 
        [2112, 0, 0]
      ]
    }, 
    {
      "op": "broadcast_div", 
      "name": "broadcast_div61", 
      "inputs": [[2309, 0, 0], [1200, 0, 0]]
    }, 
    {
      "op": "Concat", 
      "name": "concat131", 
      "attrs": {
        "dim": "1", 
        "num_args": "3"
      }, 
      "inputs": [[2307, 0, 0], [2308, 0, 0], [2310, 0, 0]]
    }, 
    {
      "op": "FullyConnected", 
      "name": "lstm_l_0t35_i2h", 
      "attrs": {"num_hidden": "376"}, 
      "inputs": [[2311, 0, 0], [56, 0, 0], [57, 0, 0]]
    }, 
    {
      "op": "ones_like", 
      "name": "ones_like468", 
      "inputs": [[2232, 0, 0]]
    }, 
    {
      "op": "Dropout", 
      "name": "dropout464", 
      "attrs": {"p": "0.1"}, 
      "inputs": [[2313, 0, 0]]
    }, 
    {
      "op": "where", 
      "name": "where718", 
      "inputs": [[2314, 0, 0], [2232, 0, 0], [2217, 0, 0]]
    }, 
    {
      "op": "FullyConnected", 
      "name": "lstm_l_0t35_h2h", 
      "attrs": {"num_hidden": "376"}, 
      "inputs": [[2315, 0, 0], [61, 0, 0], [62, 0, 0]]
    }, 
    {
      "op": "elemwise_add", 
      "name": "_plus343", 
      "inputs": [[2312, 0, 0], [2316, 0, 0]]
    }, 
    {
      "op": "SliceChannel", 
      "name": "lstm_l_0t35_slice", 
      "attrs": {"num_outputs": "4"}, 
      "inputs": [[2317, 0, 0]]
    }, 
    {
      "op": "Activation", 
      "name": "lstm_l_0t35_o", 
      "attrs": {"act_type": "sigmoid"}, 
      "inputs": [[2318, 3, 0]]
    }, 
    {
      "op": "Activation", 
      "name": "lstm_l_0t35_f", 
      "attrs": {"act_type": "sigmoid"}, 
      "inputs": [[2318, 1, 0]]
    }, 
    {
      "op": "ones_like", 
      "name": "ones_like469", 
      "inputs": [[2230, 0, 0]]
    }, 
    {
      "op": "Dropout", 
      "name": "dropout465", 
      "attrs": {"p": "0.1"}, 
      "inputs": [[2321, 0, 0]]
    }, 
    {
      "op": "where", 
      "name": "where719", 
      "inputs": [[2322, 0, 0], [2230, 0, 0], [2225, 0, 0]]
    }, 
    {
      "op": "elemwise_mul", 
      "name": "_mul817", 
      "inputs": [[2320, 0, 0], [2323, 0, 0]]
    }, 
    {
      "op": "Activation", 
      "name": "lstm_l_0t35_i", 
      "attrs": {"act_type": "sigmoid"}, 
      "inputs": [[2318, 0, 0]]
    }, 
    {
      "op": "Activation", 
      "name": "lstm_l_0t35_c", 
      "attrs": {"act_type": "tanh"}, 
      "inputs": [[2318, 2, 0]]
    }, 
    {
      "op": "elemwise_mul", 
      "name": "_mul818", 
      "inputs": [[2325, 0, 0], [2326, 0, 0]]
    }, 
    {
      "op": "elemwise_add", 
      "name": "lstm_l_0t35_state", 
      "inputs": [[2324, 0, 0], [2327, 0, 0]]
    }, 
    {
      "op": "Activation", 
      "name": "activation295", 
      "attrs": {"act_type": "tanh"}, 
      "inputs": [[2328, 0, 0]]
    }, 
    {
      "op": "elemwise_mul", 
      "name": "lstm_l_0t35_out", 
      "inputs": [[2319, 0, 0], [2329, 0, 0]]
    }, 
    {
      "op": "FullyConnected", 
      "name": "lstm_l_1t35_i2h", 
      "attrs": {"num_hidden": "376"}, 
      "inputs": [[2330, 0, 0], [77, 0, 0], [78, 0, 0]]
    }, 
    {
      "op": "ones_like", 
      "name": "ones_like470", 
      "inputs": [[2251, 0, 0]]
    }, 
    {
      "op": "Dropout", 
      "name": "dropout466", 
      "attrs": {"p": "0.1"}, 
      "inputs": [[2332, 0, 0]]
    }, 
    {
      "op": "where", 
      "name": "where720", 
      "inputs": [[2333, 0, 0], [2251, 0, 0], [2236, 0, 0]]
    }, 
    {
      "op": "FullyConnected", 
      "name": "lstm_l_1t35_h2h", 
      "attrs": {"num_hidden": "376"}, 
      "inputs": [[2334, 0, 0], [82, 0, 0], [83, 0, 0]]
    }, 
    {
      "op": "elemwise_add", 
      "name": "_plus344", 
      "inputs": [[2331, 0, 0], [2335, 0, 0]]
    }, 
    {
      "op": "SliceChannel", 
      "name": "lstm_l_1t35_slice", 
      "attrs": {"num_outputs": "4"}, 
      "inputs": [[2336, 0, 0]]
    }, 
    {
      "op": "Activation", 
      "name": "lstm_l_1t35_o", 
      "attrs": {"act_type": "sigmoid"}, 
      "inputs": [[2337, 3, 0]]
    }, 
    {
      "op": "Activation", 
      "name": "lstm_l_1t35_f", 
      "attrs": {"act_type": "sigmoid"}, 
      "inputs": [[2337, 1, 0]]
    }, 
    {
      "op": "ones_like", 
      "name": "ones_like471", 
      "inputs": [[2249, 0, 0]]
    }, 
    {
      "op": "Dropout", 
      "name": "dropout467", 
      "attrs": {"p": "0.1"}, 
      "inputs": [[2340, 0, 0]]
    }, 
    {
      "op": "where", 
      "name": "where721", 
      "inputs": [[2341, 0, 0], [2249, 0, 0], [2244, 0, 0]]
    }, 
    {
      "op": "elemwise_mul", 
      "name": "_mul819", 
      "inputs": [[2339, 0, 0], [2342, 0, 0]]
    }, 
    {
      "op": "Activation", 
      "name": "lstm_l_1t35_i", 
      "attrs": {"act_type": "sigmoid"}, 
      "inputs": [[2337, 0, 0]]
    }, 
    {
      "op": "Activation", 
      "name": "lstm_l_1t35_c", 
      "attrs": {"act_type": "tanh"}, 
      "inputs": [[2337, 2, 0]]
    }, 
    {
      "op": "elemwise_mul", 
      "name": "_mul820", 
      "inputs": [[2344, 0, 0], [2345, 0, 0]]
    }, 
    {
      "op": "elemwise_add", 
      "name": "lstm_l_1t35_state", 
      "inputs": [[2343, 0, 0], [2346, 0, 0]]
    }, 
    {
      "op": "Activation", 
      "name": "activation296", 
      "attrs": {"act_type": "tanh"}, 
      "inputs": [[2347, 0, 0]]
    }, 
    {
      "op": "elemwise_mul", 
      "name": "lstm_l_1t35_out", 
      "inputs": [[2338, 0, 0], [2348, 0, 0]]
    }, 
    {
      "op": "elemwise_add", 
      "name": "lstm_l_1t35_out_plus_residual", 
      "inputs": [[2349, 0, 0], [2330, 0, 0]]
    }, 
    {
      "op": "FullyConnected", 
      "name": "lstm_l_2t35_i2h", 
      "attrs": {"num_hidden": "376"}, 
      "inputs": [[2350, 0, 0], [99, 0, 0], [100, 0, 0]]
    }, 
    {
      "op": "ones_like", 
      "name": "ones_like472", 
      "inputs": [[2271, 0, 0]]
    }, 
    {
      "op": "Dropout", 
      "name": "dropout468", 
      "attrs": {"p": "0.1"}, 
      "inputs": [[2352, 0, 0]]
    }, 
    {
      "op": "where", 
      "name": "where722", 
      "inputs": [[2353, 0, 0], [2271, 0, 0], [2256, 0, 0]]
    }, 
    {
      "op": "FullyConnected", 
      "name": "lstm_l_2t35_h2h", 
      "attrs": {"num_hidden": "376"}, 
      "inputs": [[2354, 0, 0], [104, 0, 0], [105, 0, 0]]
    }, 
    {
      "op": "elemwise_add", 
      "name": "_plus345", 
      "inputs": [[2351, 0, 0], [2355, 0, 0]]
    }, 
    {
      "op": "SliceChannel", 
      "name": "lstm_l_2t35_slice", 
      "attrs": {"num_outputs": "4"}, 
      "inputs": [[2356, 0, 0]]
    }, 
    {
      "op": "Activation", 
      "name": "lstm_l_2t35_o", 
      "attrs": {"act_type": "sigmoid"}, 
      "inputs": [[2357, 3, 0]]
    }, 
    {
      "op": "Activation", 
      "name": "lstm_l_2t35_f", 
      "attrs": {"act_type": "sigmoid"}, 
      "inputs": [[2357, 1, 0]]
    }, 
    {
      "op": "ones_like", 
      "name": "ones_like473", 
      "inputs": [[2269, 0, 0]]
    }, 
    {
      "op": "Dropout", 
      "name": "dropout469", 
      "attrs": {"p": "0.1"}, 
      "inputs": [[2360, 0, 0]]
    }, 
    {
      "op": "where", 
      "name": "where723", 
      "inputs": [[2361, 0, 0], [2269, 0, 0], [2264, 0, 0]]
    }, 
    {
      "op": "elemwise_mul", 
      "name": "_mul821", 
      "inputs": [[2359, 0, 0], [2362, 0, 0]]
    }, 
    {
      "op": "Activation", 
      "name": "lstm_l_2t35_i", 
      "attrs": {"act_type": "sigmoid"}, 
      "inputs": [[2357, 0, 0]]
    }, 
    {
      "op": "Activation", 
      "name": "lstm_l_2t35_c", 
      "attrs": {"act_type": "tanh"}, 
      "inputs": [[2357, 2, 0]]
    }, 
    {
      "op": "elemwise_mul", 
      "name": "_mul822", 
      "inputs": [[2364, 0, 0], [2365, 0, 0]]
    }, 
    {
      "op": "elemwise_add", 
      "name": "lstm_l_2t35_state", 
      "inputs": [[2363, 0, 0], [2366, 0, 0]]
    }, 
    {
      "op": "Activation", 
      "name": "activation297", 
      "attrs": {"act_type": "tanh"}, 
      "inputs": [[2367, 0, 0]]
    }, 
    {
      "op": "elemwise_mul", 
      "name": "lstm_l_2t35_out", 
      "inputs": [[2358, 0, 0], [2368, 0, 0]]
    }, 
    {
      "op": "elemwise_add", 
      "name": "lstm_l_2t35_out_plus_residual", 
      "inputs": [[2369, 0, 0], [2350, 0, 0]]
    }, 
    {
      "op": "FullyConnected", 
      "name": "lstm_l_3t35_i2h", 
      "attrs": {"num_hidden": "376"}, 
      "inputs": [[2370, 0, 0], [121, 0, 0], [122, 0, 0]]
    }, 
    {
      "op": "ones_like", 
      "name": "ones_like474", 
      "inputs": [[2291, 0, 0]]
    }, 
    {
      "op": "Dropout", 
      "name": "dropout470", 
      "attrs": {"p": "0.1"}, 
      "inputs": [[2372, 0, 0]]
    }, 
    {
      "op": "where", 
      "name": "where724", 
      "inputs": [[2373, 0, 0], [2291, 0, 0], [2276, 0, 0]]
    }, 
    {
      "op": "FullyConnected", 
      "name": "lstm_l_3t35_h2h", 
      "attrs": {"num_hidden": "376"}, 
      "inputs": [[2374, 0, 0], [126, 0, 0], [127, 0, 0]]
    }, 
    {
      "op": "elemwise_add", 
      "name": "_plus346", 
      "inputs": [[2371, 0, 0], [2375, 0, 0]]
    }, 
    {
      "op": "SliceChannel", 
      "name": "lstm_l_3t35_slice", 
      "attrs": {"num_outputs": "4"}, 
      "inputs": [[2376, 0, 0]]
    }, 
    {
      "op": "Activation", 
      "name": "lstm_l_3t35_o", 
      "attrs": {"act_type": "sigmoid"}, 
      "inputs": [[2377, 3, 0]]
    }, 
    {
      "op": "Activation", 
      "name": "lstm_l_3t35_f", 
      "attrs": {"act_type": "sigmoid"}, 
      "inputs": [[2377, 1, 0]]
    }, 
    {
      "op": "ones_like", 
      "name": "ones_like475", 
      "inputs": [[2289, 0, 0]]
    }, 
    {
      "op": "Dropout", 
      "name": "dropout471", 
      "attrs": {"p": "0.1"}, 
      "inputs": [[2380, 0, 0]]
    }, 
    {
      "op": "where", 
      "name": "where725", 
      "inputs": [[2381, 0, 0], [2289, 0, 0], [2284, 0, 0]]
    }, 
    {
      "op": "elemwise_mul", 
      "name": "_mul823", 
      "inputs": [[2379, 0, 0], [2382, 0, 0]]
    }, 
    {
      "op": "Activation", 
      "name": "lstm_l_3t35_i", 
      "attrs": {"act_type": "sigmoid"}, 
      "inputs": [[2377, 0, 0]]
    }, 
    {
      "op": "Activation", 
      "name": "lstm_l_3t35_c", 
      "attrs": {"act_type": "tanh"}, 
      "inputs": [[2377, 2, 0]]
    }, 
    {
      "op": "elemwise_mul", 
      "name": "_mul824", 
      "inputs": [[2384, 0, 0], [2385, 0, 0]]
    }, 
    {
      "op": "elemwise_add", 
      "name": "lstm_l_3t35_state", 
      "inputs": [[2383, 0, 0], [2386, 0, 0]]
    }, 
    {
      "op": "Activation", 
      "name": "activation298", 
      "attrs": {"act_type": "tanh"}, 
      "inputs": [[2387, 0, 0]]
    }, 
    {
      "op": "elemwise_mul", 
      "name": "lstm_l_3t35_out", 
      "inputs": [[2378, 0, 0], [2388, 0, 0]]
    }, 
    {
      "op": "elemwise_add", 
      "name": "lstm_l_3t35_out_plus_residual", 
      "inputs": [[2389, 0, 0], [2370, 0, 0]]
    }, 
    {
      "op": "FullyConnected", 
      "name": "fullyconnected118", 
      "attrs": {"num_hidden": "1"}, 
      "inputs": [[2390, 0, 0], [143, 0, 0], [144, 0, 0]]
    }, 
    {
      "op": "elemwise_mul", 
      "name": "_mul828", 
      "inputs": [[2391, 0, 0], [1200, 0, 0]]
    }, 
    {
      "op": "FullyConnected", 
      "name": "fullyconnected119", 
      "attrs": {"num_hidden": "1"}, 
      "inputs": [[2390, 0, 0], [1292, 0, 0], [1293, 0, 0]]
    }, 
    {
      "op": "zeros_like", 
      "name": "zeros_like85", 
      "inputs": [[2393, 0, 0]]
    }, 
    {
      "op": "_plus_scalar", 
      "name": "_plusscalar107", 
      "attrs": {"scalar": "20.0"}, 
      "inputs": [[2394, 0, 0]]
    }, 
    {
      "op": "broadcast_lesser", 
      "name": "broadcast_lesser59", 
      "inputs": [[2393, 0, 0], [2395, 0, 0]]
    }, 
    {
      "op": "elemwise_mul", 
      "name": "_mul825", 
      "inputs": [[2396, 0, 0], [2393, 0, 0]]
    }, 
    {
      "op": "Activation", 
      "name": "activation299", 
      "attrs": {"act_type": "softrelu"}, 
      "inputs": [[2397, 0, 0]]
    }, 
    {
      "op": "elemwise_mul", 
      "name": "_mul826", 
      "inputs": [[2396, 0, 0], [2398, 0, 0]]
    }, 
    {
      "op": "broadcast_greater_equal", 
      "name": "broadcast_greater_equal59", 
      "inputs": [[2393, 0, 0], [2395, 0, 0]]
    }, 
    {
      "op": "elemwise_mul", 
      "name": "_mul827", 
      "inputs": [[2400, 0, 0], [2393, 0, 0]]
    }, 
    {
      "op": "elemwise_add", 
      "name": "_plus347", 
      "inputs": [[2399, 0, 0], [2401, 0, 0]]
    }, 
    {
      "op": "elemwise_mul", 
      "name": "_mul829", 
      "inputs": [[2402, 0, 0], [1200, 0, 0]]
    }, 
    {
      "op": "_sample_normal", 
      "name": "sample_normal35", 
      "inputs": [[2392, 0, 0], [2403, 0, 0]]
    }, 
    {
      "op": "Concat", 
      "name": "concat132", 
      "attrs": {
        "dim": "1", 
        "num_args": "12"
      }, 
      "inputs": [
        [1305, 0, 0], 
        [1406, 0, 0], 
        [1507, 0, 0], 
        [1608, 0, 0], 
        [1708, 0, 0], 
        [1808, 0, 0], 
        [1908, 0, 0], 
        [2008, 0, 0], 
        [2108, 0, 0], 
        [2208, 0, 0], 
        [2306, 0, 0], 
        [2404, 0, 0]
      ]
    }, 
    {
      "op": "Reshape", 
      "name": "reshape2", 
      "attrs": {"shape": "(-1, 100, 12)"}, 
      "inputs": [[2405, 0, 0]]
    }
  ], 
  "arg_nodes": [
    0, 
    3, 
    5, 
    7, 
    10, 
    15, 
    36, 
    40, 
    56, 
    57, 
    61, 
    62, 
    77, 
    78, 
    82, 
    83, 
    99, 
    100, 
    104, 
    105, 
    121, 
    122, 
    126, 
    127, 
    143, 
    144, 
    1292, 
    1293
  ], 
  "node_row_ptr": [
    0, 
    1, 
    13, 
    14, 
    15, 
    17, 
    18, 
    19, 
    20, 
    21, 
    22, 
    23, 
    24, 
    73, 
    74, 
    75, 
    76, 
    77, 
    126, 
    127, 
    128, 
    129, 
    130, 
    131, 
    132, 
    133, 
    134, 
    135, 
    136, 
    137, 
    138, 
    139, 
    140, 
    141, 
    142, 
    143, 
    144, 
    145, 
    146, 
    195, 
    196, 
    197, 
    246, 
    247, 
    248, 
    249, 
    250, 
    251, 
    252, 
    253, 
    254, 
    255, 
    256, 
    257, 
    258, 
    259, 
    260, 
    261, 
    262, 
    263, 
    264, 
    265, 
    266, 
    267, 
    268, 
    269, 
    273, 
    274, 
    275, 
    276, 
    277, 
    278, 
    279, 
    280, 
    281, 
    282, 
    283, 
    284, 
    285, 
    286, 
    287, 
    288, 
    289, 
    290, 
    291, 
    292, 
    293, 
    297, 
    298, 
    299, 
    300, 
    301, 
    302, 
    303, 
    304, 
    305, 
    306, 
    307, 
    308, 
    309, 
    310, 
    311, 
    312, 
    313, 
    314, 
    315, 
    316, 
    317, 
    318, 
    322, 
    323, 
    324, 
    325, 
    326, 
    327, 
    328, 
    329, 
    330, 
    331, 
    332, 
    333, 
    334, 
    335, 
    336, 
    337, 
    338, 
    339, 
    340, 
    341, 
    342, 
    343, 
    347, 
    348, 
    349, 
    350, 
    351, 
    352, 
    353, 
    354, 
    355, 
    356, 
    357, 
    358, 
    359, 
    360, 
    361, 
    362, 
    363, 
    364, 
    365, 
    366, 
    367, 
    368, 
    369, 
    370, 
    372, 
    373, 
    374, 
    375, 
    376, 
    380, 
    381, 
    382, 
    383, 
    385, 
    386, 
    387, 
    388, 
    389, 
    390, 
    391, 
    392, 
    393, 
    394, 
    395, 
    396, 
    398, 
    399, 
    400, 
    401, 
    402, 
    406, 
    407, 
    408, 
    409, 
    411, 
    412, 
    413, 
    414, 
    415, 
    416, 
    417, 
    418, 
    419, 
    420, 
    421, 
    422, 
    423, 
    425, 
    426, 
    427, 
    428, 
    429, 
    433, 
    434, 
    435, 
    436, 
    438, 
    439, 
    440, 
    441, 
    442, 
    443, 
    444, 
    445, 
    446, 
    447, 
    448, 
    449, 
    450, 
    452, 
    453, 
    454, 
    455, 
    456, 
    460, 
    461, 
    462, 
    463, 
    465, 
    466, 
    467, 
    468, 
    469, 
    470, 
    471, 
    472, 
    473, 
    474, 
    475, 
    476, 
    477, 
    478, 
    479, 
    480, 
    481, 
    482, 
    483, 
    484, 
    486, 
    487, 
    488, 
    489, 
    490, 
    494, 
    495, 
    496, 
    497, 
    499, 
    500, 
    501, 
    502, 
    503, 
    504, 
    505, 
    506, 
    507, 
    508, 
    509, 
    510, 
    512, 
    513, 
    514, 
    515, 
    516, 
    520, 
    521, 
    522, 
    523, 
    525, 
    526, 
    527, 
    528, 
    529, 
    530, 
    531, 
    532, 
    533, 
    534, 
    535, 
    536, 
    537, 
    539, 
    540, 
    541, 
    542, 
    543, 
    547, 
    548, 
    549, 
    550, 
    552, 
    553, 
    554, 
    555, 
    556, 
    557, 
    558, 
    559, 
    560, 
    561, 
    562, 
    563, 
    564, 
    566, 
    567, 
    568, 
    569, 
    570, 
    574, 
    575, 
    576, 
    577, 
    579, 
    580, 
    581, 
    582, 
    583, 
    584, 
    585, 
    586, 
    587, 
    588, 
    589, 
    590, 
    591, 
    592, 
    593, 
    594, 
    595, 
    596, 
    597, 
    598, 
    600, 
    601, 
    602, 
    603, 
    604, 
    608, 
    609, 
    610, 
    611, 
    613, 
    614, 
    615, 
    616, 
    617, 
    618, 
    619, 
    620, 
    621, 
    622, 
    623, 
    624, 
    626, 
    627, 
    628, 
    629, 
    630, 
    634, 
    635, 
    636, 
    637, 
    639, 
    640, 
    641, 
    642, 
    643, 
    644, 
    645, 
    646, 
    647, 
    648, 
    649, 
    650, 
    651, 
    653, 
    654, 
    655, 
    656, 
    657, 
    661, 
    662, 
    663, 
    664, 
    666, 
    667, 
    668, 
    669, 
    670, 
    671, 
    672, 
    673, 
    674, 
    675, 
    676, 
    677, 
    678, 
    680, 
    681, 
    682, 
    683, 
    684, 
    688, 
    689, 
    690, 
    691, 
    693, 
    694, 
    695, 
    696, 
    697, 
    698, 
    699, 
    700, 
    701, 
    702, 
    703, 
    704, 
    705, 
    706, 
    707, 
    708, 
    709, 
    710, 
    711, 
    712, 
    714, 
    715, 
    716, 
    717, 
    718, 
    722, 
    723, 
    724, 
    725, 
    727, 
    728, 
    729, 
    730, 
    731, 
    732, 
    733, 
    734, 
    735, 
    736, 
    737, 
    738, 
    740, 
    741, 
    742, 
    743, 
    744, 
    748, 
    749, 
    750, 
    751, 
    753, 
    754, 
    755, 
    756, 
    757, 
    758, 
    759, 
    760, 
    761, 
    762, 
    763, 
    764, 
    765, 
    767, 
    768, 
    769, 
    770, 
    771, 
    775, 
    776, 
    777, 
    778, 
    780, 
    781, 
    782, 
    783, 
    784, 
    785, 
    786, 
    787, 
    788, 
    789, 
    790, 
    791, 
    792, 
    794, 
    795, 
    796, 
    797, 
    798, 
    802, 
    803, 
    804, 
    805, 
    807, 
    808, 
    809, 
    810, 
    811, 
    812, 
    813, 
    814, 
    815, 
    816, 
    817, 
    818, 
    819, 
    820, 
    821, 
    822, 
    823, 
    824, 
    825, 
    826, 
    828, 
    829, 
    830, 
    831, 
    832, 
    836, 
    837, 
    838, 
    839, 
    841, 
    842, 
    843, 
    844, 
    845, 
    846, 
    847, 
    848, 
    849, 
    850, 
    851, 
    852, 
    854, 
    855, 
    856, 
    857, 
    858, 
    862, 
    863, 
    864, 
    865, 
    867, 
    868, 
    869, 
    870, 
    871, 
    872, 
    873, 
    874, 
    875, 
    876, 
    877, 
    878, 
    879, 
    881, 
    882, 
    883, 
    884, 
    885, 
    889, 
    890, 
    891, 
    892, 
    894, 
    895, 
    896, 
    897, 
    898, 
    899, 
    900, 
    901, 
    902, 
    903, 
    904, 
    905, 
    906, 
    908, 
    909, 
    910, 
    911, 
    912, 
    916, 
    917, 
    918, 
    919, 
    921, 
    922, 
    923, 
    924, 
    925, 
    926, 
    927, 
    928, 
    929, 
    930, 
    931, 
    932, 
    933, 
    934, 
    935, 
    936, 
    937, 
    938, 
    939, 
    940, 
    942, 
    943, 
    944, 
    945, 
    946, 
    950, 
    951, 
    952, 
    953, 
    955, 
    956, 
    957, 
    958, 
    959, 
    960, 
    961, 
    962, 
    963, 
    964, 
    965, 
    966, 
    968, 
    969, 
    970, 
    971, 
    972, 
    976, 
    977, 
    978, 
    979, 
    981, 
    982, 
    983, 
    984, 
    985, 
    986, 
    987, 
    988, 
    989, 
    990, 
    991, 
    992, 
    993, 
    995, 
    996, 
    997, 
    998, 
    999, 
    1003, 
    1004, 
    1005, 
    1006, 
    1008, 
    1009, 
    1010, 
    1011, 
    1012, 
    1013, 
    1014, 
    1015, 
    1016, 
    1017, 
    1018, 
    1019, 
    1020, 
    1022, 
    1023, 
    1024, 
    1025, 
    1026, 
    1030, 
    1031, 
    1032, 
    1033, 
    1035, 
    1036, 
    1037, 
    1038, 
    1039, 
    1040, 
    1041, 
    1042, 
    1043, 
    1044, 
    1045, 
    1046, 
    1047, 
    1048, 
    1049, 
    1050, 
    1051, 
    1052, 
    1053, 
    1054, 
    1056, 
    1057, 
    1058, 
    1059, 
    1060, 
    1064, 
    1065, 
    1066, 
    1067, 
    1069, 
    1070, 
    1071, 
    1072, 
    1073, 
    1074, 
    1075, 
    1076, 
    1077, 
    1078, 
    1079, 
    1080, 
    1082, 
    1083, 
    1084, 
    1085, 
    1086, 
    1090, 
    1091, 
    1092, 
    1093, 
    1095, 
    1096, 
    1097, 
    1098, 
    1099, 
    1100, 
    1101, 
    1102, 
    1103, 
    1104, 
    1105, 
    1106, 
    1107, 
    1109, 
    1110, 
    1111, 
    1112, 
    1113, 
    1117, 
    1118, 
    1119, 
    1120, 
    1122, 
    1123, 
    1124, 
    1125, 
    1126, 
    1127, 
    1128, 
    1129, 
    1130, 
    1131, 
    1132, 
    1133, 
    1134, 
    1136, 
    1137, 
    1138, 
    1139, 
    1140, 
    1144, 
    1145, 
    1146, 
    1147, 
    1149, 
    1150, 
    1151, 
    1152, 
    1153, 
    1154, 
    1155, 
    1156, 
    1157, 
    1158, 
    1159, 
    1160, 
    1161, 
    1162, 
    1163, 
    1164, 
    1165, 
    1166, 
    1167, 
    1168, 
    1170, 
    1171, 
    1172, 
    1173, 
    1174, 
    1178, 
    1179, 
    1180, 
    1181, 
    1183, 
    1184, 
    1185, 
    1186, 
    1187, 
    1188, 
    1189, 
    1190, 
    1191, 
    1192, 
    1193, 
    1194, 
    1196, 
    1197, 
    1198, 
    1199, 
    1200, 
    1204, 
    1205, 
    1206, 
    1207, 
    1209, 
    1210, 
    1211, 
    1212, 
    1213, 
    1214, 
    1215, 
    1216, 
    1217, 
    1218, 
    1219, 
    1220, 
    1221, 
    1223, 
    1224, 
    1225, 
    1226, 
    1227, 
    1231, 
    1232, 
    1233, 
    1234, 
    1236, 
    1237, 
    1238, 
    1239, 
    1240, 
    1241, 
    1242, 
    1243, 
    1244, 
    1245, 
    1246, 
    1247, 
    1248, 
    1250, 
    1251, 
    1252, 
    1253, 
    1254, 
    1258, 
    1259, 
    1260, 
    1261, 
    1263, 
    1264, 
    1265, 
    1266, 
    1267, 
    1268, 
    1269, 
    1270, 
    1271, 
    1272, 
    1273, 
    1274, 
    1275, 
    1276, 
    1277, 
    1278, 
    1279, 
    1280, 
    1281, 
    1282, 
    1284, 
    1285, 
    1286, 
    1287, 
    1288, 
    1292, 
    1293, 
    1294, 
    1295, 
    1297, 
    1298, 
    1299, 
    1300, 
    1301, 
    1302, 
    1303, 
    1304, 
    1305, 
    1306, 
    1307, 
    1308, 
    1310, 
    1311, 
    1312, 
    1313, 
    1314, 
    1318, 
    1319, 
    1320, 
    1321, 
    1323, 
    1324, 
    1325, 
    1326, 
    1327, 
    1328, 
    1329, 
    1330, 
    1331, 
    1332, 
    1333, 
    1334, 
    1335, 
    1337, 
    1338, 
    1339, 
    1340, 
    1341, 
    1345, 
    1346, 
    1347, 
    1348, 
    1350, 
    1351, 
    1352, 
    1353, 
    1354, 
    1355, 
    1356, 
    1357, 
    1358, 
    1359, 
    1360, 
    1361, 
    1362, 
    1364, 
    1365, 
    1366, 
    1367, 
    1368, 
    1372, 
    1373, 
    1374, 
    1375, 
    1377, 
    1378, 
    1379, 
    1380, 
    1381, 
    1382, 
    1383, 
    1384, 
    1385, 
    1386, 
    1387, 
    1388, 
    1389, 
    1390, 
    1391, 
    1392, 
    1393, 
    1394, 
    1395, 
    1396, 
    1398, 
    1399, 
    1400, 
    1401, 
    1402, 
    1406, 
    1407, 
    1408, 
    1409, 
    1411, 
    1412, 
    1413, 
    1414, 
    1415, 
    1416, 
    1417, 
    1418, 
    1419, 
    1420, 
    1421, 
    1422, 
    1424, 
    1425, 
    1426, 
    1427, 
    1428, 
    1432, 
    1433, 
    1434, 
    1435, 
    1437, 
    1438, 
    1439, 
    1440, 
    1441, 
    1442, 
    1443, 
    1444, 
    1445, 
    1446, 
    1447, 
    1448, 
    1449, 
    1451, 
    1452, 
    1453, 
    1454, 
    1455, 
    1459, 
    1460, 
    1461, 
    1462, 
    1464, 
    1465, 
    1466, 
    1467, 
    1468, 
    1469, 
    1470, 
    1471, 
    1472, 
    1473, 
    1474, 
    1475, 
    1476, 
    1478, 
    1479, 
    1480, 
    1481, 
    1482, 
    1486, 
    1487, 
    1488, 
    1489, 
    1491, 
    1492, 
    1493, 
    1494, 
    1495, 
    1496, 
    1497, 
    1498, 
    1499, 
    1500, 
    1501, 
    1502, 
    1503, 
    1504, 
    1505, 
    1506, 
    1507, 
    1508, 
    1509, 
    1510, 
    1512, 
    1513, 
    1514, 
    1515, 
    1516, 
    1520, 
    1521, 
    1522, 
    1523, 
    1525, 
    1526, 
    1527, 
    1528, 
    1529, 
    1530, 
    1531, 
    1532, 
    1533, 
    1534, 
    1535, 
    1536, 
    1538, 
    1539, 
    1540, 
    1541, 
    1542, 
    1546, 
    1547, 
    1548, 
    1549, 
    1551, 
    1552, 
    1553, 
    1554, 
    1555, 
    1556, 
    1557, 
    1558, 
    1559, 
    1560, 
    1561, 
    1562, 
    1563, 
    1565, 
    1566, 
    1567, 
    1568, 
    1569, 
    1573, 
    1574, 
    1575, 
    1576, 
    1578, 
    1579, 
    1580, 
    1581, 
    1582, 
    1583, 
    1584, 
    1585, 
    1586, 
    1587, 
    1588, 
    1589, 
    1590, 
    1592, 
    1593, 
    1594, 
    1595, 
    1596, 
    1600, 
    1601, 
    1602, 
    1603, 
    1605, 
    1606, 
    1607, 
    1608, 
    1609, 
    1610, 
    1611, 
    1612, 
    1613, 
    1614, 
    1615, 
    1616, 
    1617, 
    1618, 
    1619, 
    1620, 
    1621, 
    1622, 
    1623, 
    1624, 
    1625, 
    1626, 
    1627, 
    1628, 
    1629, 
    1630, 
    1631, 
    1632, 
    1633, 
    1634, 
    1635, 
    1636, 
    1637, 
    1638, 
    1639, 
    1640, 
    1641, 
    1643, 
    1644, 
    1645, 
    1646, 
    1647, 
    1651, 
    1652, 
    1653, 
    1654, 
    1656, 
    1657, 
    1658, 
    1659, 
    1660, 
    1661, 
    1662, 
    1663, 
    1664, 
    1665, 
    1666, 
    1667, 
    1669, 
    1670, 
    1671, 
    1672, 
    1673, 
    1677, 
    1678, 
    1679, 
    1680, 
    1682, 
    1683, 
    1684, 
    1685, 
    1686, 
    1687, 
    1688, 
    1689, 
    1690, 
    1691, 
    1692, 
    1693, 
    1694, 
    1696, 
    1697, 
    1698, 
    1699, 
    1700, 
    1704, 
    1705, 
    1706, 
    1707, 
    1709, 
    1710, 
    1711, 
    1712, 
    1713, 
    1714, 
    1715, 
    1716, 
    1717, 
    1718, 
    1719, 
    1720, 
    1721, 
    1723, 
    1724, 
    1725, 
    1726, 
    1727, 
    1731, 
    1732, 
    1733, 
    1734, 
    1736, 
    1737, 
    1738, 
    1739, 
    1740, 
    1741, 
    1742, 
    1743, 
    1744, 
    1745, 
    1746, 
    1747, 
    1748, 
    1749, 
    1750, 
    1751, 
    1752, 
    1753, 
    1754, 
    1755, 
    1756, 
    1757, 
    1758, 
    1759, 
    1760, 
    1761, 
    1762, 
    1763, 
    1764, 
    1765, 
    1766, 
    1767, 
    1768, 
    1769, 
    1770, 
    1771, 
    1772, 
    1774, 
    1775, 
    1776, 
    1777, 
    1781, 
    1782, 
    1783, 
    1784, 
    1786, 
    1787, 
    1788, 
    1789, 
    1790, 
    1791, 
    1792, 
    1793, 
    1794, 
    1795, 
    1796, 
    1798, 
    1799, 
    1800, 
    1801, 
    1805, 
    1806, 
    1807, 
    1808, 
    1810, 
    1811, 
    1812, 
    1813, 
    1814, 
    1815, 
    1816, 
    1817, 
    1818, 
    1819, 
    1820, 
    1821, 
    1823, 
    1824, 
    1825, 
    1826, 
    1830, 
    1831, 
    1832, 
    1833, 
    1835, 
    1836, 
    1837, 
    1838, 
    1839, 
    1840, 
    1841, 
    1842, 
    1843, 
    1844, 
    1845, 
    1846, 
    1848, 
    1849, 
    1850, 
    1851, 
    1855, 
    1856, 
    1857, 
    1858, 
    1860, 
    1861, 
    1862, 
    1863, 
    1864, 
    1865, 
    1866, 
    1867, 
    1868, 
    1869, 
    1870, 
    1871, 
    1872, 
    1873, 
    1874, 
    1875, 
    1876, 
    1877, 
    1878, 
    1879, 
    1880, 
    1881, 
    1882, 
    1883, 
    1884, 
    1885, 
    1886, 
    1887, 
    1888, 
    1889, 
    1890, 
    1891, 
    1892, 
    1893, 
    1895, 
    1896, 
    1897, 
    1898, 
    1902, 
    1903, 
    1904, 
    1905, 
    1907, 
    1908, 
    1909, 
    1910, 
    1911, 
    1912, 
    1913, 
    1914, 
    1915, 
    1916, 
    1917, 
    1919, 
    1920, 
    1921, 
    1922, 
    1926, 
    1927, 
    1928, 
    1929, 
    1931, 
    1932, 
    1933, 
    1934, 
    1935, 
    1936, 
    1937, 
    1938, 
    1939, 
    1940, 
    1941, 
    1942, 
    1944, 
    1945, 
    1946, 
    1947, 
    1951, 
    1952, 
    1953, 
    1954, 
    1956, 
    1957, 
    1958, 
    1959, 
    1960, 
    1961, 
    1962, 
    1963, 
    1964, 
    1965, 
    1966, 
    1967, 
    1969, 
    1970, 
    1971, 
    1972, 
    1976, 
    1977, 
    1978, 
    1979, 
    1981, 
    1982, 
    1983, 
    1984, 
    1985, 
    1986, 
    1987, 
    1988, 
    1989, 
    1990, 
    1991, 
    1992, 
    1993, 
    1994, 
    1995, 
    1996, 
    1997, 
    1998, 
    1999, 
    2000, 
    2001, 
    2002, 
    2003, 
    2004, 
    2005, 
    2006, 
    2007, 
    2008, 
    2009, 
    2010, 
    2011, 
    2012, 
    2013, 
    2014, 
    2016, 
    2017, 
    2018, 
    2019, 
    2023, 
    2024, 
    2025, 
    2026, 
    2028, 
    2029, 
    2030, 
    2031, 
    2032, 
    2033, 
    2034, 
    2035, 
    2036, 
    2037, 
    2038, 
    2040, 
    2041, 
    2042, 
    2043, 
    2047, 
    2048, 
    2049, 
    2050, 
    2052, 
    2053, 
    2054, 
    2055, 
    2056, 
    2057, 
    2058, 
    2059, 
    2060, 
    2061, 
    2062, 
    2063, 
    2065, 
    2066, 
    2067, 
    2068, 
    2072, 
    2073, 
    2074, 
    2075, 
    2077, 
    2078, 
    2079, 
    2080, 
    2081, 
    2082, 
    2083, 
    2084, 
    2085, 
    2086, 
    2087, 
    2088, 
    2090, 
    2091, 
    2092, 
    2093, 
    2097, 
    2098, 
    2099, 
    2100, 
    2102, 
    2103, 
    2104, 
    2105, 
    2106, 
    2107, 
    2108, 
    2109, 
    2110, 
    2111, 
    2112, 
    2113, 
    2114, 
    2115, 
    2116, 
    2117, 
    2118, 
    2119, 
    2120, 
    2121, 
    2122, 
    2123, 
    2124, 
    2125, 
    2126, 
    2127, 
    2128, 
    2129, 
    2130, 
    2131, 
    2132, 
    2133, 
    2134, 
    2136, 
    2137, 
    2138, 
    2139, 
    2143, 
    2144, 
    2145, 
    2146, 
    2148, 
    2149, 
    2150, 
    2151, 
    2152, 
    2153, 
    2154, 
    2155, 
    2156, 
    2157, 
    2158, 
    2160, 
    2161, 
    2162, 
    2163, 
    2167, 
    2168, 
    2169, 
    2170, 
    2172, 
    2173, 
    2174, 
    2175, 
    2176, 
    2177, 
    2178, 
    2179, 
    2180, 
    2181, 
    2182, 
    2183, 
    2185, 
    2186, 
    2187, 
    2188, 
    2192, 
    2193, 
    2194, 
    2195, 
    2197, 
    2198, 
    2199, 
    2200, 
    2201, 
    2202, 
    2203, 
    2204, 
    2205, 
    2206, 
    2207, 
    2208, 
    2210, 
    2211, 
    2212, 
    2213, 
    2217, 
    2218, 
    2219, 
    2220, 
    2222, 
    2223, 
    2224, 
    2225, 
    2226, 
    2227, 
    2228, 
    2229, 
    2230, 
    2231, 
    2232, 
    2233, 
    2234, 
    2235, 
    2236, 
    2237, 
    2238, 
    2239, 
    2240, 
    2241, 
    2242, 
    2243, 
    2244, 
    2245, 
    2246, 
    2247, 
    2248, 
    2249, 
    2250, 
    2251, 
    2252, 
    2253, 
    2254, 
    2256, 
    2257, 
    2258, 
    2259, 
    2263, 
    2264, 
    2265, 
    2266, 
    2268, 
    2269, 
    2270, 
    2271, 
    2272, 
    2273, 
    2274, 
    2275, 
    2276, 
    2277, 
    2278, 
    2280, 
    2281, 
    2282, 
    2283, 
    2287, 
    2288, 
    2289, 
    2290, 
    2292, 
    2293, 
    2294, 
    2295, 
    2296, 
    2297, 
    2298, 
    2299, 
    2300, 
    2301, 
    2302, 
    2303, 
    2305, 
    2306, 
    2307, 
    2308, 
    2312, 
    2313, 
    2314, 
    2315, 
    2317, 
    2318, 
    2319, 
    2320, 
    2321, 
    2322, 
    2323, 
    2324, 
    2325, 
    2326, 
    2327, 
    2328, 
    2330, 
    2331, 
    2332, 
    2333, 
    2337, 
    2338, 
    2339, 
    2340, 
    2342, 
    2343, 
    2344, 
    2345, 
    2346, 
    2347, 
    2348, 
    2349, 
    2350, 
    2351, 
    2352, 
    2353, 
    2354, 
    2355, 
    2356, 
    2357, 
    2358, 
    2359, 
    2360, 
    2361, 
    2362, 
    2363, 
    2364, 
    2365, 
    2366, 
    2367, 
    2368, 
    2369, 
    2370, 
    2371, 
    2372, 
    2373, 
    2374, 
    2376, 
    2377, 
    2378, 
    2379, 
    2383, 
    2384, 
    2385, 
    2386, 
    2388, 
    2389, 
    2390, 
    2391, 
    2392, 
    2393, 
    2394, 
    2395, 
    2396, 
    2397, 
    2398, 
    2400, 
    2401, 
    2402, 
    2403, 
    2407, 
    2408, 
    2409, 
    2410, 
    2412, 
    2413, 
    2414, 
    2415, 
    2416, 
    2417, 
    2418, 
    2419, 
    2420, 
    2421, 
    2422, 
    2423, 
    2425, 
    2426, 
    2427, 
    2428, 
    2432, 
    2433, 
    2434, 
    2435, 
    2437, 
    2438, 
    2439, 
    2440, 
    2441, 
    2442, 
    2443, 
    2444, 
    2445, 
    2446, 
    2447, 
    2448, 
    2450, 
    2451, 
    2452, 
    2453, 
    2457, 
    2458, 
    2459, 
    2460, 
    2462, 
    2463, 
    2464, 
    2465, 
    2466, 
    2467, 
    2468, 
    2469, 
    2470, 
    2471, 
    2472, 
    2473, 
    2474, 
    2475, 
    2476, 
    2477, 
    2478, 
    2479, 
    2480, 
    2481, 
    2482, 
    2483, 
    2484, 
    2485, 
    2486, 
    2487, 
    2488, 
    2489, 
    2490, 
    2491, 
    2492, 
    2493, 
    2494, 
    2496, 
    2497, 
    2498, 
    2499, 
    2503, 
    2504, 
    2505, 
    2506, 
    2508, 
    2509, 
    2510, 
    2511, 
    2512, 
    2513, 
    2514, 
    2515, 
    2516, 
    2517, 
    2518, 
    2520, 
    2521, 
    2522, 
    2523, 
    2527, 
    2528, 
    2529, 
    2530, 
    2532, 
    2533, 
    2534, 
    2535, 
    2536, 
    2537, 
    2538, 
    2539, 
    2540, 
    2541, 
    2542, 
    2543, 
    2545, 
    2546, 
    2547, 
    2548, 
    2552, 
    2553, 
    2554, 
    2555, 
    2557, 
    2558, 
    2559, 
    2560, 
    2561, 
    2562, 
    2563, 
    2564, 
    2565, 
    2566, 
    2567, 
    2568, 
    2570, 
    2571, 
    2572, 
    2573, 
    2577, 
    2578, 
    2579, 
    2580, 
    2582, 
    2583, 
    2584, 
    2585, 
    2586, 
    2587, 
    2588, 
    2589, 
    2590, 
    2591, 
    2592, 
    2593, 
    2594, 
    2595, 
    2596, 
    2597, 
    2598, 
    2599, 
    2600, 
    2601, 
    2602, 
    2603, 
    2604, 
    2605, 
    2606, 
    2607, 
    2608, 
    2609, 
    2610, 
    2611, 
    2612, 
    2613, 
    2614, 
    2616, 
    2617, 
    2618, 
    2619, 
    2623, 
    2624, 
    2625, 
    2626, 
    2628, 
    2629, 
    2630, 
    2631, 
    2632, 
    2633, 
    2634, 
    2635, 
    2636, 
    2637, 
    2638, 
    2640, 
    2641, 
    2642, 
    2643, 
    2647, 
    2648, 
    2649, 
    2650, 
    2652, 
    2653, 
    2654, 
    2655, 
    2656, 
    2657, 
    2658, 
    2659, 
    2660, 
    2661, 
    2662, 
    2663, 
    2665, 
    2666, 
    2667, 
    2668, 
    2672, 
    2673, 
    2674, 
    2675, 
    2677, 
    2678, 
    2679, 
    2680, 
    2681, 
    2682, 
    2683, 
    2684, 
    2685, 
    2686, 
    2687, 
    2688, 
    2690, 
    2691, 
    2692, 
    2693, 
    2697, 
    2698, 
    2699, 
    2700, 
    2702, 
    2703, 
    2704, 
    2705, 
    2706, 
    2707, 
    2708, 
    2709, 
    2710, 
    2711, 
    2712, 
    2713, 
    2714, 
    2715, 
    2716, 
    2717, 
    2718, 
    2719, 
    2720, 
    2721, 
    2722, 
    2723, 
    2724, 
    2725, 
    2726, 
    2727, 
    2728, 
    2729, 
    2730, 
    2731, 
    2732, 
    2733, 
    2734, 
    2736, 
    2737, 
    2738, 
    2739, 
    2743, 
    2744, 
    2745, 
    2746, 
    2748, 
    2749, 
    2750, 
    2751, 
    2752, 
    2753, 
    2754, 
    2755, 
    2756, 
    2757, 
    2758, 
    2760, 
    2761, 
    2762, 
    2763, 
    2767, 
    2768, 
    2769, 
    2770, 
    2772, 
    2773, 
    2774, 
    2775, 
    2776, 
    2777, 
    2778, 
    2779, 
    2780, 
    2781, 
    2782, 
    2783, 
    2785, 
    2786, 
    2787, 
    2788, 
    2792, 
    2793, 
    2794, 
    2795, 
    2797, 
    2798, 
    2799, 
    2800, 
    2801, 
    2802, 
    2803, 
    2804, 
    2805, 
    2806, 
    2807, 
    2808, 
    2810, 
    2811, 
    2812, 
    2813, 
    2817, 
    2818, 
    2819, 
    2820, 
    2822, 
    2823, 
    2824, 
    2825, 
    2826, 
    2827, 
    2828, 
    2829, 
    2830, 
    2831, 
    2832, 
    2833, 
    2834, 
    2835, 
    2836, 
    2837, 
    2838, 
    2839, 
    2840, 
    2841, 
    2842, 
    2843, 
    2844, 
    2845, 
    2846, 
    2847, 
    2848, 
    2849, 
    2850, 
    2851, 
    2852, 
    2854, 
    2855, 
    2856, 
    2857, 
    2861, 
    2862, 
    2863, 
    2864, 
    2866, 
    2867, 
    2868, 
    2869, 
    2870, 
    2871, 
    2872, 
    2873, 
    2874, 
    2875, 
    2876, 
    2878, 
    2879, 
    2880, 
    2881, 
    2885, 
    2886, 
    2887, 
    2888, 
    2890, 
    2891, 
    2892, 
    2893, 
    2894, 
    2895, 
    2896, 
    2897, 
    2898, 
    2899, 
    2900, 
    2901, 
    2903, 
    2904, 
    2905, 
    2906, 
    2910, 
    2911, 
    2912, 
    2913, 
    2915, 
    2916, 
    2917, 
    2918, 
    2919, 
    2920, 
    2921, 
    2922, 
    2923, 
    2924, 
    2925, 
    2926, 
    2928, 
    2929, 
    2930, 
    2931, 
    2935, 
    2936, 
    2937, 
    2938, 
    2940, 
    2941, 
    2942, 
    2943, 
    2944, 
    2945, 
    2946, 
    2947, 
    2948, 
    2949, 
    2950, 
    2951, 
    2952, 
    2953, 
    2954, 
    2955, 
    2956, 
    2957, 
    2958, 
    2959, 
    2960, 
    2961, 
    2962, 
    2963, 
    2964, 
    2965, 
    2966, 
    2967, 
    2968, 
    2969, 
    2970, 
    2972, 
    2973, 
    2974, 
    2975, 
    2979, 
    2980, 
    2981, 
    2982, 
    2984, 
    2985, 
    2986, 
    2987, 
    2988, 
    2989, 
    2990, 
    2991, 
    2992, 
    2993, 
    2994, 
    2996, 
    2997, 
    2998, 
    2999, 
    3003, 
    3004, 
    3005, 
    3006, 
    3008, 
    3009, 
    3010, 
    3011, 
    3012, 
    3013, 
    3014, 
    3015, 
    3016, 
    3017, 
    3018, 
    3019, 
    3021, 
    3022, 
    3023, 
    3024, 
    3028, 
    3029, 
    3030, 
    3031, 
    3033, 
    3034, 
    3035, 
    3036, 
    3037, 
    3038, 
    3039, 
    3040, 
    3041, 
    3042, 
    3043, 
    3044, 
    3046, 
    3047, 
    3048, 
    3049, 
    3053, 
    3054, 
    3055, 
    3056, 
    3058, 
    3059, 
    3060, 
    3061, 
    3062, 
    3063, 
    3064, 
    3065, 
    3066, 
    3067, 
    3068, 
    3069, 
    3070, 
    3071, 
    3072, 
    3073, 
    3074, 
    3075, 
    3076, 
    3077, 
    3078, 
    3079, 
    3080, 
    3081, 
    3082, 
    3083
  ], 
  "heads": [[2406, 0, 0]], 
  "attrs": {"mxnet_version": ["int", 10100]}
}